{"modelTopology": {"training_config": {"loss_weights": null, "optimizer_config": {"class_name": "Adam", "config": {"beta_1": 0.8999999761581421, "decay": 1.9999999949504854e-06, "lr": 9.999999747378752e-05, "amsgrad": false, "epsilon": 1e-07, "beta_2": 0.9990000128746033}}, "sample_weight_mode": null, "loss": "binary_crossentropy", "metrics": ["accuracy"]}, "backend": "tensorflow", "model_config": {"class_name": "Model", "config": {"name": "model_1", "output_layers": [["dense_3", 0, 0]], "input_layers": [["input_1", 0, 0]], "layers": [{"name": "input_1", "inbound_nodes": [], "config": {"dtype": "float32", "name": "input_1", "batch_input_shape": [null, 224, 224, 3], "sparse": false}, "class_name": "InputLayer"}, {"name": "conv1_pad", "inbound_nodes": [[["input_1", 0, 0, {}]]], "config": {"name": "conv1_pad", "data_format": "channels_last", "padding": [[3, 3], [3, 3]], "trainable": true}, "class_name": "ZeroPadding2D"}, {"name": "conv1", "inbound_nodes": [[["conv1_pad", 0, 0, {}]]], "config": {"kernel_size": [7, 7], "name": "conv1", "bias_initializer": {"class_name": "Zeros", "config": {}}, "kernel_regularizer": null, "activity_regularizer": null, "strides": [2, 2], "padding": "valid", "bias_regularizer": null, "use_bias": true, "kernel_constraint": null, "bias_constraint": null, "kernel_initializer": {"class_name": "VarianceScaling", "config": {"seed": null, "mode": "fan_in", "distribution": "normal", "scale": 2.0}}, "activation": "linear", "filters": 64, "data_format": "channels_last", "trainable": true, "dilation_rate": [1, 1]}, "class_name": "Conv2D"}, {"name": "bn_conv1", "inbound_nodes": [[["conv1", 0, 0, {}]]], "config": {"name": "bn_conv1", "beta_constraint": null, "axis": 3, "moving_variance_initializer": {"class_name": "Ones", "config": {}}, "gamma_initializer": {"class_name": "Ones", "config": {}}, "beta_initializer": {"class_name": "Zeros", "config": {}}, "beta_regularizer": null, "gamma_constraint": null, "center": true, "scale": true, "moving_mean_initializer": {"class_name": "Zeros", "config": {}}, "momentum": 0.99, "trainable": true, "gamma_regularizer": null, "epsilon": 0.001}, "class_name": "BatchNormalization"}, {"name": "activation_1", "inbound_nodes": [[["bn_conv1", 0, 0, {}]]], "config": {"name": "activation_1", "activation": "relu", "trainable": true}, "class_name": "Activation"}, {"name": "pool1_pad", "inbound_nodes": [[["activation_1", 0, 0, {}]]], "config": {"name": "pool1_pad", "data_format": "channels_last", "padding": [[1, 1], [1, 1]], "trainable": true}, "class_name": "ZeroPadding2D"}, {"name": "max_pooling2d_1", "inbound_nodes": [[["pool1_pad", 0, 0, {}]]], "config": {"name": "max_pooling2d_1", "padding": "valid", "strides": [2, 2], "trainable": true, "data_format": "channels_last", "pool_size": [3, 3]}, "class_name": "MaxPooling2D"}, {"name": "res2a_branch2a", "inbound_nodes": [[["max_pooling2d_1", 0, 0, {}]]], "config": {"kernel_size": [1, 1], "name": "res2a_branch2a", "bias_initializer": {"class_name": "Zeros", "config": {}}, "kernel_regularizer": null, "activity_regularizer": null, "strides": [1, 1], "padding": "valid", "bias_regularizer": null, "use_bias": true, "kernel_constraint": null, "bias_constraint": null, "kernel_initializer": {"class_name": "VarianceScaling", "config": {"seed": null, "mode": "fan_in", "distribution": "normal", "scale": 2.0}}, "activation": "linear", "filters": 64, "data_format": "channels_last", "trainable": true, "dilation_rate": [1, 1]}, "class_name": "Conv2D"}, {"name": "bn2a_branch2a", "inbound_nodes": [[["res2a_branch2a", 0, 0, {}]]], "config": {"name": "bn2a_branch2a", "beta_constraint": null, "axis": 3, "moving_variance_initializer": {"class_name": "Ones", "config": {}}, "gamma_initializer": {"class_name": "Ones", "config": {}}, "beta_initializer": {"class_name": "Zeros", "config": {}}, "beta_regularizer": null, "gamma_constraint": null, "center": true, "scale": true, "moving_mean_initializer": {"class_name": "Zeros", "config": {}}, "momentum": 0.99, "trainable": true, "gamma_regularizer": null, "epsilon": 0.001}, "class_name": "BatchNormalization"}, {"name": "activation_2", "inbound_nodes": [[["bn2a_branch2a", 0, 0, {}]]], "config": {"name": "activation_2", "activation": "relu", "trainable": true}, "class_name": "Activation"}, {"name": "res2a_branch2b", "inbound_nodes": [[["activation_2", 0, 0, {}]]], "config": {"kernel_size": [3, 3], "name": "res2a_branch2b", "bias_initializer": {"class_name": "Zeros", "config": {}}, "kernel_regularizer": null, "activity_regularizer": null, "strides": [1, 1], "padding": "same", "bias_regularizer": null, "use_bias": true, "kernel_constraint": null, "bias_constraint": null, "kernel_initializer": {"class_name": "VarianceScaling", "config": {"seed": null, "mode": "fan_in", "distribution": "normal", "scale": 2.0}}, "activation": "linear", "filters": 64, "data_format": "channels_last", "trainable": true, "dilation_rate": [1, 1]}, "class_name": "Conv2D"}, {"name": "bn2a_branch2b", "inbound_nodes": [[["res2a_branch2b", 0, 0, {}]]], "config": {"name": "bn2a_branch2b", "beta_constraint": null, "axis": 3, "moving_variance_initializer": {"class_name": "Ones", "config": {}}, "gamma_initializer": {"class_name": "Ones", "config": {}}, "beta_initializer": {"class_name": "Zeros", "config": {}}, "beta_regularizer": null, "gamma_constraint": null, "center": true, "scale": true, "moving_mean_initializer": {"class_name": "Zeros", "config": {}}, "momentum": 0.99, "trainable": true, "gamma_regularizer": null, "epsilon": 0.001}, "class_name": "BatchNormalization"}, {"name": "activation_3", "inbound_nodes": [[["bn2a_branch2b", 0, 0, {}]]], "config": {"name": "activation_3", "activation": "relu", "trainable": true}, "class_name": "Activation"}, {"name": "res2a_branch2c", "inbound_nodes": [[["activation_3", 0, 0, {}]]], "config": {"kernel_size": [1, 1], "name": "res2a_branch2c", "bias_initializer": {"class_name": "Zeros", "config": {}}, "kernel_regularizer": null, "activity_regularizer": null, "strides": [1, 1], "padding": "valid", "bias_regularizer": null, "use_bias": true, "kernel_constraint": null, "bias_constraint": null, "kernel_initializer": {"class_name": "VarianceScaling", "config": {"seed": null, "mode": "fan_in", "distribution": "normal", "scale": 2.0}}, "activation": "linear", "filters": 256, "data_format": "channels_last", "trainable": true, "dilation_rate": [1, 1]}, "class_name": "Conv2D"}, {"name": "res2a_branch1", "inbound_nodes": [[["max_pooling2d_1", 0, 0, {}]]], "config": {"kernel_size": [1, 1], "name": "res2a_branch1", "bias_initializer": {"class_name": "Zeros", "config": {}}, "kernel_regularizer": null, "activity_regularizer": null, "strides": [1, 1], "padding": "valid", "bias_regularizer": null, "use_bias": true, "kernel_constraint": null, "bias_constraint": null, "kernel_initializer": {"class_name": "VarianceScaling", "config": {"seed": null, "mode": "fan_in", "distribution": "normal", "scale": 2.0}}, "activation": "linear", "filters": 256, "data_format": "channels_last", "trainable": true, "dilation_rate": [1, 1]}, "class_name": "Conv2D"}, {"name": "bn2a_branch2c", "inbound_nodes": [[["res2a_branch2c", 0, 0, {}]]], "config": {"name": "bn2a_branch2c", "beta_constraint": null, "axis": 3, "moving_variance_initializer": {"class_name": "Ones", "config": {}}, "gamma_initializer": {"class_name": "Ones", "config": {}}, "beta_initializer": {"class_name": "Zeros", "config": {}}, "beta_regularizer": null, "gamma_constraint": null, "center": true, "scale": true, "moving_mean_initializer": {"class_name": "Zeros", "config": {}}, "momentum": 0.99, "trainable": true, "gamma_regularizer": null, "epsilon": 0.001}, "class_name": "BatchNormalization"}, {"name": "bn2a_branch1", "inbound_nodes": [[["res2a_branch1", 0, 0, {}]]], "config": {"name": "bn2a_branch1", "beta_constraint": null, "axis": 3, "moving_variance_initializer": {"class_name": "Ones", "config": {}}, "gamma_initializer": {"class_name": "Ones", "config": {}}, "beta_initializer": {"class_name": "Zeros", "config": {}}, "beta_regularizer": null, "gamma_constraint": null, "center": true, "scale": true, "moving_mean_initializer": {"class_name": "Zeros", "config": {}}, "momentum": 0.99, "trainable": true, "gamma_regularizer": null, "epsilon": 0.001}, "class_name": "BatchNormalization"}, {"name": "add_1", "inbound_nodes": [[["bn2a_branch2c", 0, 0, {}], ["bn2a_branch1", 0, 0, {}]]], "config": {"name": "add_1", "trainable": true}, "class_name": "Add"}, {"name": "activation_4", "inbound_nodes": [[["add_1", 0, 0, {}]]], "config": {"name": "activation_4", "activation": "relu", "trainable": true}, "class_name": "Activation"}, {"name": "res2b_branch2a", "inbound_nodes": [[["activation_4", 0, 0, {}]]], "config": {"kernel_size": [1, 1], "name": "res2b_branch2a", "bias_initializer": {"class_name": "Zeros", "config": {}}, "kernel_regularizer": null, "activity_regularizer": null, "strides": [1, 1], "padding": "valid", "bias_regularizer": null, "use_bias": true, "kernel_constraint": null, "bias_constraint": null, "kernel_initializer": {"class_name": "VarianceScaling", "config": {"seed": null, "mode": "fan_in", "distribution": "normal", "scale": 2.0}}, "activation": "linear", "filters": 64, "data_format": "channels_last", "trainable": true, "dilation_rate": [1, 1]}, "class_name": "Conv2D"}, {"name": "bn2b_branch2a", "inbound_nodes": [[["res2b_branch2a", 0, 0, {}]]], "config": {"name": "bn2b_branch2a", "beta_constraint": null, "axis": 3, "moving_variance_initializer": {"class_name": "Ones", "config": {}}, "gamma_initializer": {"class_name": "Ones", "config": {}}, "beta_initializer": {"class_name": "Zeros", "config": {}}, "beta_regularizer": null, "gamma_constraint": null, "center": true, "scale": true, "moving_mean_initializer": {"class_name": "Zeros", "config": {}}, "momentum": 0.99, "trainable": true, "gamma_regularizer": null, "epsilon": 0.001}, "class_name": "BatchNormalization"}, {"name": "activation_5", "inbound_nodes": [[["bn2b_branch2a", 0, 0, {}]]], "config": {"name": "activation_5", "activation": "relu", "trainable": true}, "class_name": "Activation"}, {"name": "res2b_branch2b", "inbound_nodes": [[["activation_5", 0, 0, {}]]], "config": {"kernel_size": [3, 3], "name": "res2b_branch2b", "bias_initializer": {"class_name": "Zeros", "config": {}}, "kernel_regularizer": null, "activity_regularizer": null, "strides": [1, 1], "padding": "same", "bias_regularizer": null, "use_bias": true, "kernel_constraint": null, "bias_constraint": null, "kernel_initializer": {"class_name": "VarianceScaling", "config": {"seed": null, "mode": "fan_in", "distribution": "normal", "scale": 2.0}}, "activation": "linear", "filters": 64, "data_format": "channels_last", "trainable": true, "dilation_rate": [1, 1]}, "class_name": "Conv2D"}, {"name": "bn2b_branch2b", "inbound_nodes": [[["res2b_branch2b", 0, 0, {}]]], "config": {"name": "bn2b_branch2b", "beta_constraint": null, "axis": 3, "moving_variance_initializer": {"class_name": "Ones", "config": {}}, "gamma_initializer": {"class_name": "Ones", "config": {}}, "beta_initializer": {"class_name": "Zeros", "config": {}}, "beta_regularizer": null, "gamma_constraint": null, "center": true, "scale": true, "moving_mean_initializer": {"class_name": "Zeros", "config": {}}, "momentum": 0.99, "trainable": true, "gamma_regularizer": null, "epsilon": 0.001}, "class_name": "BatchNormalization"}, {"name": "activation_6", "inbound_nodes": [[["bn2b_branch2b", 0, 0, {}]]], "config": {"name": "activation_6", "activation": "relu", "trainable": true}, "class_name": "Activation"}, {"name": "res2b_branch2c", "inbound_nodes": [[["activation_6", 0, 0, {}]]], "config": {"kernel_size": [1, 1], "name": "res2b_branch2c", "bias_initializer": {"class_name": "Zeros", "config": {}}, "kernel_regularizer": null, "activity_regularizer": null, "strides": [1, 1], "padding": "valid", "bias_regularizer": null, "use_bias": true, "kernel_constraint": null, "bias_constraint": null, "kernel_initializer": {"class_name": "VarianceScaling", "config": {"seed": null, "mode": "fan_in", "distribution": "normal", "scale": 2.0}}, "activation": "linear", "filters": 256, "data_format": "channels_last", "trainable": true, "dilation_rate": [1, 1]}, "class_name": "Conv2D"}, {"name": "bn2b_branch2c", "inbound_nodes": [[["res2b_branch2c", 0, 0, {}]]], "config": {"name": "bn2b_branch2c", "beta_constraint": null, "axis": 3, "moving_variance_initializer": {"class_name": "Ones", "config": {}}, "gamma_initializer": {"class_name": "Ones", "config": {}}, "beta_initializer": {"class_name": "Zeros", "config": {}}, "beta_regularizer": null, "gamma_constraint": null, "center": true, "scale": true, "moving_mean_initializer": {"class_name": "Zeros", "config": {}}, "momentum": 0.99, "trainable": true, "gamma_regularizer": null, "epsilon": 0.001}, "class_name": "BatchNormalization"}, {"name": "add_2", "inbound_nodes": [[["bn2b_branch2c", 0, 0, {}], ["activation_4", 0, 0, {}]]], "config": {"name": "add_2", "trainable": true}, "class_name": "Add"}, {"name": "activation_7", "inbound_nodes": [[["add_2", 0, 0, {}]]], "config": {"name": "activation_7", "activation": "relu", "trainable": true}, "class_name": "Activation"}, {"name": "res2c_branch2a", "inbound_nodes": [[["activation_7", 0, 0, {}]]], "config": {"kernel_size": [1, 1], "name": "res2c_branch2a", "bias_initializer": {"class_name": "Zeros", "config": {}}, "kernel_regularizer": null, "activity_regularizer": null, "strides": [1, 1], "padding": "valid", "bias_regularizer": null, "use_bias": true, "kernel_constraint": null, "bias_constraint": null, "kernel_initializer": {"class_name": "VarianceScaling", "config": {"seed": null, "mode": "fan_in", "distribution": "normal", "scale": 2.0}}, "activation": "linear", "filters": 64, "data_format": "channels_last", "trainable": true, "dilation_rate": [1, 1]}, "class_name": "Conv2D"}, {"name": "bn2c_branch2a", "inbound_nodes": [[["res2c_branch2a", 0, 0, {}]]], "config": {"name": "bn2c_branch2a", "beta_constraint": null, "axis": 3, "moving_variance_initializer": {"class_name": "Ones", "config": {}}, "gamma_initializer": {"class_name": "Ones", "config": {}}, "beta_initializer": {"class_name": "Zeros", "config": {}}, "beta_regularizer": null, "gamma_constraint": null, "center": true, "scale": true, "moving_mean_initializer": {"class_name": "Zeros", "config": {}}, "momentum": 0.99, "trainable": true, "gamma_regularizer": null, "epsilon": 0.001}, "class_name": "BatchNormalization"}, {"name": "activation_8", "inbound_nodes": [[["bn2c_branch2a", 0, 0, {}]]], "config": {"name": "activation_8", "activation": "relu", "trainable": true}, "class_name": "Activation"}, {"name": "res2c_branch2b", "inbound_nodes": [[["activation_8", 0, 0, {}]]], "config": {"kernel_size": [3, 3], "name": "res2c_branch2b", "bias_initializer": {"class_name": "Zeros", "config": {}}, "kernel_regularizer": null, "activity_regularizer": null, "strides": [1, 1], "padding": "same", "bias_regularizer": null, "use_bias": true, "kernel_constraint": null, "bias_constraint": null, "kernel_initializer": {"class_name": "VarianceScaling", "config": {"seed": null, "mode": "fan_in", "distribution": "normal", "scale": 2.0}}, "activation": "linear", "filters": 64, "data_format": "channels_last", "trainable": true, "dilation_rate": [1, 1]}, "class_name": "Conv2D"}, {"name": "bn2c_branch2b", "inbound_nodes": [[["res2c_branch2b", 0, 0, {}]]], "config": {"name": "bn2c_branch2b", "beta_constraint": null, "axis": 3, "moving_variance_initializer": {"class_name": "Ones", "config": {}}, "gamma_initializer": {"class_name": "Ones", "config": {}}, "beta_initializer": {"class_name": "Zeros", "config": {}}, "beta_regularizer": null, "gamma_constraint": null, "center": true, "scale": true, "moving_mean_initializer": {"class_name": "Zeros", "config": {}}, "momentum": 0.99, "trainable": true, "gamma_regularizer": null, "epsilon": 0.001}, "class_name": "BatchNormalization"}, {"name": "activation_9", "inbound_nodes": [[["bn2c_branch2b", 0, 0, {}]]], "config": {"name": "activation_9", "activation": "relu", "trainable": true}, "class_name": "Activation"}, {"name": "res2c_branch2c", "inbound_nodes": [[["activation_9", 0, 0, {}]]], "config": {"kernel_size": [1, 1], "name": "res2c_branch2c", "bias_initializer": {"class_name": "Zeros", "config": {}}, "kernel_regularizer": null, "activity_regularizer": null, "strides": [1, 1], "padding": "valid", "bias_regularizer": null, "use_bias": true, "kernel_constraint": null, "bias_constraint": null, "kernel_initializer": {"class_name": "VarianceScaling", "config": {"seed": null, "mode": "fan_in", "distribution": "normal", "scale": 2.0}}, "activation": "linear", "filters": 256, "data_format": "channels_last", "trainable": true, "dilation_rate": [1, 1]}, "class_name": "Conv2D"}, {"name": "bn2c_branch2c", "inbound_nodes": [[["res2c_branch2c", 0, 0, {}]]], "config": {"name": "bn2c_branch2c", "beta_constraint": null, "axis": 3, "moving_variance_initializer": {"class_name": "Ones", "config": {}}, "gamma_initializer": {"class_name": "Ones", "config": {}}, "beta_initializer": {"class_name": "Zeros", "config": {}}, "beta_regularizer": null, "gamma_constraint": null, "center": true, "scale": true, "moving_mean_initializer": {"class_name": "Zeros", "config": {}}, "momentum": 0.99, "trainable": true, "gamma_regularizer": null, "epsilon": 0.001}, "class_name": "BatchNormalization"}, {"name": "add_3", "inbound_nodes": [[["bn2c_branch2c", 0, 0, {}], ["activation_7", 0, 0, {}]]], "config": {"name": "add_3", "trainable": true}, "class_name": "Add"}, {"name": "activation_10", "inbound_nodes": [[["add_3", 0, 0, {}]]], "config": {"name": "activation_10", "activation": "relu", "trainable": true}, "class_name": "Activation"}, {"name": "res3a_branch2a", "inbound_nodes": [[["activation_10", 0, 0, {}]]], "config": {"kernel_size": [1, 1], "name": "res3a_branch2a", "bias_initializer": {"class_name": "Zeros", "config": {}}, "kernel_regularizer": null, "activity_regularizer": null, "strides": [2, 2], "padding": "valid", "bias_regularizer": null, "use_bias": true, "kernel_constraint": null, "bias_constraint": null, "kernel_initializer": {"class_name": "VarianceScaling", "config": {"seed": null, "mode": "fan_in", "distribution": "normal", "scale": 2.0}}, "activation": "linear", "filters": 128, "data_format": "channels_last", "trainable": true, "dilation_rate": [1, 1]}, "class_name": "Conv2D"}, {"name": "bn3a_branch2a", "inbound_nodes": [[["res3a_branch2a", 0, 0, {}]]], "config": {"name": "bn3a_branch2a", "beta_constraint": null, "axis": 3, "moving_variance_initializer": {"class_name": "Ones", "config": {}}, "gamma_initializer": {"class_name": "Ones", "config": {}}, "beta_initializer": {"class_name": "Zeros", "config": {}}, "beta_regularizer": null, "gamma_constraint": null, "center": true, "scale": true, "moving_mean_initializer": {"class_name": "Zeros", "config": {}}, "momentum": 0.99, "trainable": true, "gamma_regularizer": null, "epsilon": 0.001}, "class_name": "BatchNormalization"}, {"name": "activation_11", "inbound_nodes": [[["bn3a_branch2a", 0, 0, {}]]], "config": {"name": "activation_11", "activation": "relu", "trainable": true}, "class_name": "Activation"}, {"name": "res3a_branch2b", "inbound_nodes": [[["activation_11", 0, 0, {}]]], "config": {"kernel_size": [3, 3], "name": "res3a_branch2b", "bias_initializer": {"class_name": "Zeros", "config": {}}, "kernel_regularizer": null, "activity_regularizer": null, "strides": [1, 1], "padding": "same", "bias_regularizer": null, "use_bias": true, "kernel_constraint": null, "bias_constraint": null, "kernel_initializer": {"class_name": "VarianceScaling", "config": {"seed": null, "mode": "fan_in", "distribution": "normal", "scale": 2.0}}, "activation": "linear", "filters": 128, "data_format": "channels_last", "trainable": true, "dilation_rate": [1, 1]}, "class_name": "Conv2D"}, {"name": "bn3a_branch2b", "inbound_nodes": [[["res3a_branch2b", 0, 0, {}]]], "config": {"name": "bn3a_branch2b", "beta_constraint": null, "axis": 3, "moving_variance_initializer": {"class_name": "Ones", "config": {}}, "gamma_initializer": {"class_name": "Ones", "config": {}}, "beta_initializer": {"class_name": "Zeros", "config": {}}, "beta_regularizer": null, "gamma_constraint": null, "center": true, "scale": true, "moving_mean_initializer": {"class_name": "Zeros", "config": {}}, "momentum": 0.99, "trainable": true, "gamma_regularizer": null, "epsilon": 0.001}, "class_name": "BatchNormalization"}, {"name": "activation_12", "inbound_nodes": [[["bn3a_branch2b", 0, 0, {}]]], "config": {"name": "activation_12", "activation": "relu", "trainable": true}, "class_name": "Activation"}, {"name": "res3a_branch2c", "inbound_nodes": [[["activation_12", 0, 0, {}]]], "config": {"kernel_size": [1, 1], "name": "res3a_branch2c", "bias_initializer": {"class_name": "Zeros", "config": {}}, "kernel_regularizer": null, "activity_regularizer": null, "strides": [1, 1], "padding": "valid", "bias_regularizer": null, "use_bias": true, "kernel_constraint": null, "bias_constraint": null, "kernel_initializer": {"class_name": "VarianceScaling", "config": {"seed": null, "mode": "fan_in", "distribution": "normal", "scale": 2.0}}, "activation": "linear", "filters": 512, "data_format": "channels_last", "trainable": true, "dilation_rate": [1, 1]}, "class_name": "Conv2D"}, {"name": "res3a_branch1", "inbound_nodes": [[["activation_10", 0, 0, {}]]], "config": {"kernel_size": [1, 1], "name": "res3a_branch1", "bias_initializer": {"class_name": "Zeros", "config": {}}, "kernel_regularizer": null, "activity_regularizer": null, "strides": [2, 2], "padding": "valid", "bias_regularizer": null, "use_bias": true, "kernel_constraint": null, "bias_constraint": null, "kernel_initializer": {"class_name": "VarianceScaling", "config": {"seed": null, "mode": "fan_in", "distribution": "normal", "scale": 2.0}}, "activation": "linear", "filters": 512, "data_format": "channels_last", "trainable": true, "dilation_rate": [1, 1]}, "class_name": "Conv2D"}, {"name": "bn3a_branch2c", "inbound_nodes": [[["res3a_branch2c", 0, 0, {}]]], "config": {"name": "bn3a_branch2c", "beta_constraint": null, "axis": 3, "moving_variance_initializer": {"class_name": "Ones", "config": {}}, "gamma_initializer": {"class_name": "Ones", "config": {}}, "beta_initializer": {"class_name": "Zeros", "config": {}}, "beta_regularizer": null, "gamma_constraint": null, "center": true, "scale": true, "moving_mean_initializer": {"class_name": "Zeros", "config": {}}, "momentum": 0.99, "trainable": true, "gamma_regularizer": null, "epsilon": 0.001}, "class_name": "BatchNormalization"}, {"name": "bn3a_branch1", "inbound_nodes": [[["res3a_branch1", 0, 0, {}]]], "config": {"name": "bn3a_branch1", "beta_constraint": null, "axis": 3, "moving_variance_initializer": {"class_name": "Ones", "config": {}}, "gamma_initializer": {"class_name": "Ones", "config": {}}, "beta_initializer": {"class_name": "Zeros", "config": {}}, "beta_regularizer": null, "gamma_constraint": null, "center": true, "scale": true, "moving_mean_initializer": {"class_name": "Zeros", "config": {}}, "momentum": 0.99, "trainable": true, "gamma_regularizer": null, "epsilon": 0.001}, "class_name": "BatchNormalization"}, {"name": "add_4", "inbound_nodes": [[["bn3a_branch2c", 0, 0, {}], ["bn3a_branch1", 0, 0, {}]]], "config": {"name": "add_4", "trainable": true}, "class_name": "Add"}, {"name": "activation_13", "inbound_nodes": [[["add_4", 0, 0, {}]]], "config": {"name": "activation_13", "activation": "relu", "trainable": true}, "class_name": "Activation"}, {"name": "res3b_branch2a", "inbound_nodes": [[["activation_13", 0, 0, {}]]], "config": {"kernel_size": [1, 1], "name": "res3b_branch2a", "bias_initializer": {"class_name": "Zeros", "config": {}}, "kernel_regularizer": null, "activity_regularizer": null, "strides": [1, 1], "padding": "valid", "bias_regularizer": null, "use_bias": true, "kernel_constraint": null, "bias_constraint": null, "kernel_initializer": {"class_name": "VarianceScaling", "config": {"seed": null, "mode": "fan_in", "distribution": "normal", "scale": 2.0}}, "activation": "linear", "filters": 128, "data_format": "channels_last", "trainable": true, "dilation_rate": [1, 1]}, "class_name": "Conv2D"}, {"name": "bn3b_branch2a", "inbound_nodes": [[["res3b_branch2a", 0, 0, {}]]], "config": {"name": "bn3b_branch2a", "beta_constraint": null, "axis": 3, "moving_variance_initializer": {"class_name": "Ones", "config": {}}, "gamma_initializer": {"class_name": "Ones", "config": {}}, "beta_initializer": {"class_name": "Zeros", "config": {}}, "beta_regularizer": null, "gamma_constraint": null, "center": true, "scale": true, "moving_mean_initializer": {"class_name": "Zeros", "config": {}}, "momentum": 0.99, "trainable": true, "gamma_regularizer": null, "epsilon": 0.001}, "class_name": "BatchNormalization"}, {"name": "activation_14", "inbound_nodes": [[["bn3b_branch2a", 0, 0, {}]]], "config": {"name": "activation_14", "activation": "relu", "trainable": true}, "class_name": "Activation"}, {"name": "res3b_branch2b", "inbound_nodes": [[["activation_14", 0, 0, {}]]], "config": {"kernel_size": [3, 3], "name": "res3b_branch2b", "bias_initializer": {"class_name": "Zeros", "config": {}}, "kernel_regularizer": null, "activity_regularizer": null, "strides": [1, 1], "padding": "same", "bias_regularizer": null, "use_bias": true, "kernel_constraint": null, "bias_constraint": null, "kernel_initializer": {"class_name": "VarianceScaling", "config": {"seed": null, "mode": "fan_in", "distribution": "normal", "scale": 2.0}}, "activation": "linear", "filters": 128, "data_format": "channels_last", "trainable": true, "dilation_rate": [1, 1]}, "class_name": "Conv2D"}, {"name": "bn3b_branch2b", "inbound_nodes": [[["res3b_branch2b", 0, 0, {}]]], "config": {"name": "bn3b_branch2b", "beta_constraint": null, "axis": 3, "moving_variance_initializer": {"class_name": "Ones", "config": {}}, "gamma_initializer": {"class_name": "Ones", "config": {}}, "beta_initializer": {"class_name": "Zeros", "config": {}}, "beta_regularizer": null, "gamma_constraint": null, "center": true, "scale": true, "moving_mean_initializer": {"class_name": "Zeros", "config": {}}, "momentum": 0.99, "trainable": true, "gamma_regularizer": null, "epsilon": 0.001}, "class_name": "BatchNormalization"}, {"name": "activation_15", "inbound_nodes": [[["bn3b_branch2b", 0, 0, {}]]], "config": {"name": "activation_15", "activation": "relu", "trainable": true}, "class_name": "Activation"}, {"name": "res3b_branch2c", "inbound_nodes": [[["activation_15", 0, 0, {}]]], "config": {"kernel_size": [1, 1], "name": "res3b_branch2c", "bias_initializer": {"class_name": "Zeros", "config": {}}, "kernel_regularizer": null, "activity_regularizer": null, "strides": [1, 1], "padding": "valid", "bias_regularizer": null, "use_bias": true, "kernel_constraint": null, "bias_constraint": null, "kernel_initializer": {"class_name": "VarianceScaling", "config": {"seed": null, "mode": "fan_in", "distribution": "normal", "scale": 2.0}}, "activation": "linear", "filters": 512, "data_format": "channels_last", "trainable": true, "dilation_rate": [1, 1]}, "class_name": "Conv2D"}, {"name": "bn3b_branch2c", "inbound_nodes": [[["res3b_branch2c", 0, 0, {}]]], "config": {"name": "bn3b_branch2c", "beta_constraint": null, "axis": 3, "moving_variance_initializer": {"class_name": "Ones", "config": {}}, "gamma_initializer": {"class_name": "Ones", "config": {}}, "beta_initializer": {"class_name": "Zeros", "config": {}}, "beta_regularizer": null, "gamma_constraint": null, "center": true, "scale": true, "moving_mean_initializer": {"class_name": "Zeros", "config": {}}, "momentum": 0.99, "trainable": true, "gamma_regularizer": null, "epsilon": 0.001}, "class_name": "BatchNormalization"}, {"name": "add_5", "inbound_nodes": [[["bn3b_branch2c", 0, 0, {}], ["activation_13", 0, 0, {}]]], "config": {"name": "add_5", "trainable": true}, "class_name": "Add"}, {"name": "activation_16", "inbound_nodes": [[["add_5", 0, 0, {}]]], "config": {"name": "activation_16", "activation": "relu", "trainable": true}, "class_name": "Activation"}, {"name": "res3c_branch2a", "inbound_nodes": [[["activation_16", 0, 0, {}]]], "config": {"kernel_size": [1, 1], "name": "res3c_branch2a", "bias_initializer": {"class_name": "Zeros", "config": {}}, "kernel_regularizer": null, "activity_regularizer": null, "strides": [1, 1], "padding": "valid", "bias_regularizer": null, "use_bias": true, "kernel_constraint": null, "bias_constraint": null, "kernel_initializer": {"class_name": "VarianceScaling", "config": {"seed": null, "mode": "fan_in", "distribution": "normal", "scale": 2.0}}, "activation": "linear", "filters": 128, "data_format": "channels_last", "trainable": true, "dilation_rate": [1, 1]}, "class_name": "Conv2D"}, {"name": "bn3c_branch2a", "inbound_nodes": [[["res3c_branch2a", 0, 0, {}]]], "config": {"name": "bn3c_branch2a", "beta_constraint": null, "axis": 3, "moving_variance_initializer": {"class_name": "Ones", "config": {}}, "gamma_initializer": {"class_name": "Ones", "config": {}}, "beta_initializer": {"class_name": "Zeros", "config": {}}, "beta_regularizer": null, "gamma_constraint": null, "center": true, "scale": true, "moving_mean_initializer": {"class_name": "Zeros", "config": {}}, "momentum": 0.99, "trainable": true, "gamma_regularizer": null, "epsilon": 0.001}, "class_name": "BatchNormalization"}, {"name": "activation_17", "inbound_nodes": [[["bn3c_branch2a", 0, 0, {}]]], "config": {"name": "activation_17", "activation": "relu", "trainable": true}, "class_name": "Activation"}, {"name": "res3c_branch2b", "inbound_nodes": [[["activation_17", 0, 0, {}]]], "config": {"kernel_size": [3, 3], "name": "res3c_branch2b", "bias_initializer": {"class_name": "Zeros", "config": {}}, "kernel_regularizer": null, "activity_regularizer": null, "strides": [1, 1], "padding": "same", "bias_regularizer": null, "use_bias": true, "kernel_constraint": null, "bias_constraint": null, "kernel_initializer": {"class_name": "VarianceScaling", "config": {"seed": null, "mode": "fan_in", "distribution": "normal", "scale": 2.0}}, "activation": "linear", "filters": 128, "data_format": "channels_last", "trainable": true, "dilation_rate": [1, 1]}, "class_name": "Conv2D"}, {"name": "bn3c_branch2b", "inbound_nodes": [[["res3c_branch2b", 0, 0, {}]]], "config": {"name": "bn3c_branch2b", "beta_constraint": null, "axis": 3, "moving_variance_initializer": {"class_name": "Ones", "config": {}}, "gamma_initializer": {"class_name": "Ones", "config": {}}, "beta_initializer": {"class_name": "Zeros", "config": {}}, "beta_regularizer": null, "gamma_constraint": null, "center": true, "scale": true, "moving_mean_initializer": {"class_name": "Zeros", "config": {}}, "momentum": 0.99, "trainable": true, "gamma_regularizer": null, "epsilon": 0.001}, "class_name": "BatchNormalization"}, {"name": "activation_18", "inbound_nodes": [[["bn3c_branch2b", 0, 0, {}]]], "config": {"name": "activation_18", "activation": "relu", "trainable": true}, "class_name": "Activation"}, {"name": "res3c_branch2c", "inbound_nodes": [[["activation_18", 0, 0, {}]]], "config": {"kernel_size": [1, 1], "name": "res3c_branch2c", "bias_initializer": {"class_name": "Zeros", "config": {}}, "kernel_regularizer": null, "activity_regularizer": null, "strides": [1, 1], "padding": "valid", "bias_regularizer": null, "use_bias": true, "kernel_constraint": null, "bias_constraint": null, "kernel_initializer": {"class_name": "VarianceScaling", "config": {"seed": null, "mode": "fan_in", "distribution": "normal", "scale": 2.0}}, "activation": "linear", "filters": 512, "data_format": "channels_last", "trainable": true, "dilation_rate": [1, 1]}, "class_name": "Conv2D"}, {"name": "bn3c_branch2c", "inbound_nodes": [[["res3c_branch2c", 0, 0, {}]]], "config": {"name": "bn3c_branch2c", "beta_constraint": null, "axis": 3, "moving_variance_initializer": {"class_name": "Ones", "config": {}}, "gamma_initializer": {"class_name": "Ones", "config": {}}, "beta_initializer": {"class_name": "Zeros", "config": {}}, "beta_regularizer": null, "gamma_constraint": null, "center": true, "scale": true, "moving_mean_initializer": {"class_name": "Zeros", "config": {}}, "momentum": 0.99, "trainable": true, "gamma_regularizer": null, "epsilon": 0.001}, "class_name": "BatchNormalization"}, {"name": "add_6", "inbound_nodes": [[["bn3c_branch2c", 0, 0, {}], ["activation_16", 0, 0, {}]]], "config": {"name": "add_6", "trainable": true}, "class_name": "Add"}, {"name": "activation_19", "inbound_nodes": [[["add_6", 0, 0, {}]]], "config": {"name": "activation_19", "activation": "relu", "trainable": true}, "class_name": "Activation"}, {"name": "res3d_branch2a", "inbound_nodes": [[["activation_19", 0, 0, {}]]], "config": {"kernel_size": [1, 1], "name": "res3d_branch2a", "bias_initializer": {"class_name": "Zeros", "config": {}}, "kernel_regularizer": null, "activity_regularizer": null, "strides": [1, 1], "padding": "valid", "bias_regularizer": null, "use_bias": true, "kernel_constraint": null, "bias_constraint": null, "kernel_initializer": {"class_name": "VarianceScaling", "config": {"seed": null, "mode": "fan_in", "distribution": "normal", "scale": 2.0}}, "activation": "linear", "filters": 128, "data_format": "channels_last", "trainable": true, "dilation_rate": [1, 1]}, "class_name": "Conv2D"}, {"name": "bn3d_branch2a", "inbound_nodes": [[["res3d_branch2a", 0, 0, {}]]], "config": {"name": "bn3d_branch2a", "beta_constraint": null, "axis": 3, "moving_variance_initializer": {"class_name": "Ones", "config": {}}, "gamma_initializer": {"class_name": "Ones", "config": {}}, "beta_initializer": {"class_name": "Zeros", "config": {}}, "beta_regularizer": null, "gamma_constraint": null, "center": true, "scale": true, "moving_mean_initializer": {"class_name": "Zeros", "config": {}}, "momentum": 0.99, "trainable": true, "gamma_regularizer": null, "epsilon": 0.001}, "class_name": "BatchNormalization"}, {"name": "activation_20", "inbound_nodes": [[["bn3d_branch2a", 0, 0, {}]]], "config": {"name": "activation_20", "activation": "relu", "trainable": true}, "class_name": "Activation"}, {"name": "res3d_branch2b", "inbound_nodes": [[["activation_20", 0, 0, {}]]], "config": {"kernel_size": [3, 3], "name": "res3d_branch2b", "bias_initializer": {"class_name": "Zeros", "config": {}}, "kernel_regularizer": null, "activity_regularizer": null, "strides": [1, 1], "padding": "same", "bias_regularizer": null, "use_bias": true, "kernel_constraint": null, "bias_constraint": null, "kernel_initializer": {"class_name": "VarianceScaling", "config": {"seed": null, "mode": "fan_in", "distribution": "normal", "scale": 2.0}}, "activation": "linear", "filters": 128, "data_format": "channels_last", "trainable": true, "dilation_rate": [1, 1]}, "class_name": "Conv2D"}, {"name": "bn3d_branch2b", "inbound_nodes": [[["res3d_branch2b", 0, 0, {}]]], "config": {"name": "bn3d_branch2b", "beta_constraint": null, "axis": 3, "moving_variance_initializer": {"class_name": "Ones", "config": {}}, "gamma_initializer": {"class_name": "Ones", "config": {}}, "beta_initializer": {"class_name": "Zeros", "config": {}}, "beta_regularizer": null, "gamma_constraint": null, "center": true, "scale": true, "moving_mean_initializer": {"class_name": "Zeros", "config": {}}, "momentum": 0.99, "trainable": true, "gamma_regularizer": null, "epsilon": 0.001}, "class_name": "BatchNormalization"}, {"name": "activation_21", "inbound_nodes": [[["bn3d_branch2b", 0, 0, {}]]], "config": {"name": "activation_21", "activation": "relu", "trainable": true}, "class_name": "Activation"}, {"name": "res3d_branch2c", "inbound_nodes": [[["activation_21", 0, 0, {}]]], "config": {"kernel_size": [1, 1], "name": "res3d_branch2c", "bias_initializer": {"class_name": "Zeros", "config": {}}, "kernel_regularizer": null, "activity_regularizer": null, "strides": [1, 1], "padding": "valid", "bias_regularizer": null, "use_bias": true, "kernel_constraint": null, "bias_constraint": null, "kernel_initializer": {"class_name": "VarianceScaling", "config": {"seed": null, "mode": "fan_in", "distribution": "normal", "scale": 2.0}}, "activation": "linear", "filters": 512, "data_format": "channels_last", "trainable": true, "dilation_rate": [1, 1]}, "class_name": "Conv2D"}, {"name": "bn3d_branch2c", "inbound_nodes": [[["res3d_branch2c", 0, 0, {}]]], "config": {"name": "bn3d_branch2c", "beta_constraint": null, "axis": 3, "moving_variance_initializer": {"class_name": "Ones", "config": {}}, "gamma_initializer": {"class_name": "Ones", "config": {}}, "beta_initializer": {"class_name": "Zeros", "config": {}}, "beta_regularizer": null, "gamma_constraint": null, "center": true, "scale": true, "moving_mean_initializer": {"class_name": "Zeros", "config": {}}, "momentum": 0.99, "trainable": true, "gamma_regularizer": null, "epsilon": 0.001}, "class_name": "BatchNormalization"}, {"name": "add_7", "inbound_nodes": [[["bn3d_branch2c", 0, 0, {}], ["activation_19", 0, 0, {}]]], "config": {"name": "add_7", "trainable": true}, "class_name": "Add"}, {"name": "activation_22", "inbound_nodes": [[["add_7", 0, 0, {}]]], "config": {"name": "activation_22", "activation": "relu", "trainable": true}, "class_name": "Activation"}, {"name": "res4a_branch2a", "inbound_nodes": [[["activation_22", 0, 0, {}]]], "config": {"kernel_size": [1, 1], "name": "res4a_branch2a", "bias_initializer": {"class_name": "Zeros", "config": {}}, "kernel_regularizer": null, "activity_regularizer": null, "strides": [2, 2], "padding": "valid", "bias_regularizer": null, "use_bias": true, "kernel_constraint": null, "bias_constraint": null, "kernel_initializer": {"class_name": "VarianceScaling", "config": {"seed": null, "mode": "fan_in", "distribution": "normal", "scale": 2.0}}, "activation": "linear", "filters": 256, "data_format": "channels_last", "trainable": true, "dilation_rate": [1, 1]}, "class_name": "Conv2D"}, {"name": "bn4a_branch2a", "inbound_nodes": [[["res4a_branch2a", 0, 0, {}]]], "config": {"name": "bn4a_branch2a", "beta_constraint": null, "axis": 3, "moving_variance_initializer": {"class_name": "Ones", "config": {}}, "gamma_initializer": {"class_name": "Ones", "config": {}}, "beta_initializer": {"class_name": "Zeros", "config": {}}, "beta_regularizer": null, "gamma_constraint": null, "center": true, "scale": true, "moving_mean_initializer": {"class_name": "Zeros", "config": {}}, "momentum": 0.99, "trainable": true, "gamma_regularizer": null, "epsilon": 0.001}, "class_name": "BatchNormalization"}, {"name": "activation_23", "inbound_nodes": [[["bn4a_branch2a", 0, 0, {}]]], "config": {"name": "activation_23", "activation": "relu", "trainable": true}, "class_name": "Activation"}, {"name": "res4a_branch2b", "inbound_nodes": [[["activation_23", 0, 0, {}]]], "config": {"kernel_size": [3, 3], "name": "res4a_branch2b", "bias_initializer": {"class_name": "Zeros", "config": {}}, "kernel_regularizer": null, "activity_regularizer": null, "strides": [1, 1], "padding": "same", "bias_regularizer": null, "use_bias": true, "kernel_constraint": null, "bias_constraint": null, "kernel_initializer": {"class_name": "VarianceScaling", "config": {"seed": null, "mode": "fan_in", "distribution": "normal", "scale": 2.0}}, "activation": "linear", "filters": 256, "data_format": "channels_last", "trainable": true, "dilation_rate": [1, 1]}, "class_name": "Conv2D"}, {"name": "bn4a_branch2b", "inbound_nodes": [[["res4a_branch2b", 0, 0, {}]]], "config": {"name": "bn4a_branch2b", "beta_constraint": null, "axis": 3, "moving_variance_initializer": {"class_name": "Ones", "config": {}}, "gamma_initializer": {"class_name": "Ones", "config": {}}, "beta_initializer": {"class_name": "Zeros", "config": {}}, "beta_regularizer": null, "gamma_constraint": null, "center": true, "scale": true, "moving_mean_initializer": {"class_name": "Zeros", "config": {}}, "momentum": 0.99, "trainable": true, "gamma_regularizer": null, "epsilon": 0.001}, "class_name": "BatchNormalization"}, {"name": "activation_24", "inbound_nodes": [[["bn4a_branch2b", 0, 0, {}]]], "config": {"name": "activation_24", "activation": "relu", "trainable": true}, "class_name": "Activation"}, {"name": "res4a_branch2c", "inbound_nodes": [[["activation_24", 0, 0, {}]]], "config": {"kernel_size": [1, 1], "name": "res4a_branch2c", "bias_initializer": {"class_name": "Zeros", "config": {}}, "kernel_regularizer": null, "activity_regularizer": null, "strides": [1, 1], "padding": "valid", "bias_regularizer": null, "use_bias": true, "kernel_constraint": null, "bias_constraint": null, "kernel_initializer": {"class_name": "VarianceScaling", "config": {"seed": null, "mode": "fan_in", "distribution": "normal", "scale": 2.0}}, "activation": "linear", "filters": 1024, "data_format": "channels_last", "trainable": true, "dilation_rate": [1, 1]}, "class_name": "Conv2D"}, {"name": "res4a_branch1", "inbound_nodes": [[["activation_22", 0, 0, {}]]], "config": {"kernel_size": [1, 1], "name": "res4a_branch1", "bias_initializer": {"class_name": "Zeros", "config": {}}, "kernel_regularizer": null, "activity_regularizer": null, "strides": [2, 2], "padding": "valid", "bias_regularizer": null, "use_bias": true, "kernel_constraint": null, "bias_constraint": null, "kernel_initializer": {"class_name": "VarianceScaling", "config": {"seed": null, "mode": "fan_in", "distribution": "normal", "scale": 2.0}}, "activation": "linear", "filters": 1024, "data_format": "channels_last", "trainable": true, "dilation_rate": [1, 1]}, "class_name": "Conv2D"}, {"name": "bn4a_branch2c", "inbound_nodes": [[["res4a_branch2c", 0, 0, {}]]], "config": {"name": "bn4a_branch2c", "beta_constraint": null, "axis": 3, "moving_variance_initializer": {"class_name": "Ones", "config": {}}, "gamma_initializer": {"class_name": "Ones", "config": {}}, "beta_initializer": {"class_name": "Zeros", "config": {}}, "beta_regularizer": null, "gamma_constraint": null, "center": true, "scale": true, "moving_mean_initializer": {"class_name": "Zeros", "config": {}}, "momentum": 0.99, "trainable": true, "gamma_regularizer": null, "epsilon": 0.001}, "class_name": "BatchNormalization"}, {"name": "bn4a_branch1", "inbound_nodes": [[["res4a_branch1", 0, 0, {}]]], "config": {"name": "bn4a_branch1", "beta_constraint": null, "axis": 3, "moving_variance_initializer": {"class_name": "Ones", "config": {}}, "gamma_initializer": {"class_name": "Ones", "config": {}}, "beta_initializer": {"class_name": "Zeros", "config": {}}, "beta_regularizer": null, "gamma_constraint": null, "center": true, "scale": true, "moving_mean_initializer": {"class_name": "Zeros", "config": {}}, "momentum": 0.99, "trainable": true, "gamma_regularizer": null, "epsilon": 0.001}, "class_name": "BatchNormalization"}, {"name": "add_8", "inbound_nodes": [[["bn4a_branch2c", 0, 0, {}], ["bn4a_branch1", 0, 0, {}]]], "config": {"name": "add_8", "trainable": true}, "class_name": "Add"}, {"name": "activation_25", "inbound_nodes": [[["add_8", 0, 0, {}]]], "config": {"name": "activation_25", "activation": "relu", "trainable": true}, "class_name": "Activation"}, {"name": "res4b_branch2a", "inbound_nodes": [[["activation_25", 0, 0, {}]]], "config": {"kernel_size": [1, 1], "name": "res4b_branch2a", "bias_initializer": {"class_name": "Zeros", "config": {}}, "kernel_regularizer": null, "activity_regularizer": null, "strides": [1, 1], "padding": "valid", "bias_regularizer": null, "use_bias": true, "kernel_constraint": null, "bias_constraint": null, "kernel_initializer": {"class_name": "VarianceScaling", "config": {"seed": null, "mode": "fan_in", "distribution": "normal", "scale": 2.0}}, "activation": "linear", "filters": 256, "data_format": "channels_last", "trainable": true, "dilation_rate": [1, 1]}, "class_name": "Conv2D"}, {"name": "bn4b_branch2a", "inbound_nodes": [[["res4b_branch2a", 0, 0, {}]]], "config": {"name": "bn4b_branch2a", "beta_constraint": null, "axis": 3, "moving_variance_initializer": {"class_name": "Ones", "config": {}}, "gamma_initializer": {"class_name": "Ones", "config": {}}, "beta_initializer": {"class_name": "Zeros", "config": {}}, "beta_regularizer": null, "gamma_constraint": null, "center": true, "scale": true, "moving_mean_initializer": {"class_name": "Zeros", "config": {}}, "momentum": 0.99, "trainable": true, "gamma_regularizer": null, "epsilon": 0.001}, "class_name": "BatchNormalization"}, {"name": "activation_26", "inbound_nodes": [[["bn4b_branch2a", 0, 0, {}]]], "config": {"name": "activation_26", "activation": "relu", "trainable": true}, "class_name": "Activation"}, {"name": "res4b_branch2b", "inbound_nodes": [[["activation_26", 0, 0, {}]]], "config": {"kernel_size": [3, 3], "name": "res4b_branch2b", "bias_initializer": {"class_name": "Zeros", "config": {}}, "kernel_regularizer": null, "activity_regularizer": null, "strides": [1, 1], "padding": "same", "bias_regularizer": null, "use_bias": true, "kernel_constraint": null, "bias_constraint": null, "kernel_initializer": {"class_name": "VarianceScaling", "config": {"seed": null, "mode": "fan_in", "distribution": "normal", "scale": 2.0}}, "activation": "linear", "filters": 256, "data_format": "channels_last", "trainable": true, "dilation_rate": [1, 1]}, "class_name": "Conv2D"}, {"name": "bn4b_branch2b", "inbound_nodes": [[["res4b_branch2b", 0, 0, {}]]], "config": {"name": "bn4b_branch2b", "beta_constraint": null, "axis": 3, "moving_variance_initializer": {"class_name": "Ones", "config": {}}, "gamma_initializer": {"class_name": "Ones", "config": {}}, "beta_initializer": {"class_name": "Zeros", "config": {}}, "beta_regularizer": null, "gamma_constraint": null, "center": true, "scale": true, "moving_mean_initializer": {"class_name": "Zeros", "config": {}}, "momentum": 0.99, "trainable": true, "gamma_regularizer": null, "epsilon": 0.001}, "class_name": "BatchNormalization"}, {"name": "activation_27", "inbound_nodes": [[["bn4b_branch2b", 0, 0, {}]]], "config": {"name": "activation_27", "activation": "relu", "trainable": true}, "class_name": "Activation"}, {"name": "res4b_branch2c", "inbound_nodes": [[["activation_27", 0, 0, {}]]], "config": {"kernel_size": [1, 1], "name": "res4b_branch2c", "bias_initializer": {"class_name": "Zeros", "config": {}}, "kernel_regularizer": null, "activity_regularizer": null, "strides": [1, 1], "padding": "valid", "bias_regularizer": null, "use_bias": true, "kernel_constraint": null, "bias_constraint": null, "kernel_initializer": {"class_name": "VarianceScaling", "config": {"seed": null, "mode": "fan_in", "distribution": "normal", "scale": 2.0}}, "activation": "linear", "filters": 1024, "data_format": "channels_last", "trainable": true, "dilation_rate": [1, 1]}, "class_name": "Conv2D"}, {"name": "bn4b_branch2c", "inbound_nodes": [[["res4b_branch2c", 0, 0, {}]]], "config": {"name": "bn4b_branch2c", "beta_constraint": null, "axis": 3, "moving_variance_initializer": {"class_name": "Ones", "config": {}}, "gamma_initializer": {"class_name": "Ones", "config": {}}, "beta_initializer": {"class_name": "Zeros", "config": {}}, "beta_regularizer": null, "gamma_constraint": null, "center": true, "scale": true, "moving_mean_initializer": {"class_name": "Zeros", "config": {}}, "momentum": 0.99, "trainable": true, "gamma_regularizer": null, "epsilon": 0.001}, "class_name": "BatchNormalization"}, {"name": "add_9", "inbound_nodes": [[["bn4b_branch2c", 0, 0, {}], ["activation_25", 0, 0, {}]]], "config": {"name": "add_9", "trainable": true}, "class_name": "Add"}, {"name": "activation_28", "inbound_nodes": [[["add_9", 0, 0, {}]]], "config": {"name": "activation_28", "activation": "relu", "trainable": true}, "class_name": "Activation"}, {"name": "res4c_branch2a", "inbound_nodes": [[["activation_28", 0, 0, {}]]], "config": {"kernel_size": [1, 1], "name": "res4c_branch2a", "bias_initializer": {"class_name": "Zeros", "config": {}}, "kernel_regularizer": null, "activity_regularizer": null, "strides": [1, 1], "padding": "valid", "bias_regularizer": null, "use_bias": true, "kernel_constraint": null, "bias_constraint": null, "kernel_initializer": {"class_name": "VarianceScaling", "config": {"seed": null, "mode": "fan_in", "distribution": "normal", "scale": 2.0}}, "activation": "linear", "filters": 256, "data_format": "channels_last", "trainable": true, "dilation_rate": [1, 1]}, "class_name": "Conv2D"}, {"name": "bn4c_branch2a", "inbound_nodes": [[["res4c_branch2a", 0, 0, {}]]], "config": {"name": "bn4c_branch2a", "beta_constraint": null, "axis": 3, "moving_variance_initializer": {"class_name": "Ones", "config": {}}, "gamma_initializer": {"class_name": "Ones", "config": {}}, "beta_initializer": {"class_name": "Zeros", "config": {}}, "beta_regularizer": null, "gamma_constraint": null, "center": true, "scale": true, "moving_mean_initializer": {"class_name": "Zeros", "config": {}}, "momentum": 0.99, "trainable": true, "gamma_regularizer": null, "epsilon": 0.001}, "class_name": "BatchNormalization"}, {"name": "activation_29", "inbound_nodes": [[["bn4c_branch2a", 0, 0, {}]]], "config": {"name": "activation_29", "activation": "relu", "trainable": true}, "class_name": "Activation"}, {"name": "res4c_branch2b", "inbound_nodes": [[["activation_29", 0, 0, {}]]], "config": {"kernel_size": [3, 3], "name": "res4c_branch2b", "bias_initializer": {"class_name": "Zeros", "config": {}}, "kernel_regularizer": null, "activity_regularizer": null, "strides": [1, 1], "padding": "same", "bias_regularizer": null, "use_bias": true, "kernel_constraint": null, "bias_constraint": null, "kernel_initializer": {"class_name": "VarianceScaling", "config": {"seed": null, "mode": "fan_in", "distribution": "normal", "scale": 2.0}}, "activation": "linear", "filters": 256, "data_format": "channels_last", "trainable": true, "dilation_rate": [1, 1]}, "class_name": "Conv2D"}, {"name": "bn4c_branch2b", "inbound_nodes": [[["res4c_branch2b", 0, 0, {}]]], "config": {"name": "bn4c_branch2b", "beta_constraint": null, "axis": 3, "moving_variance_initializer": {"class_name": "Ones", "config": {}}, "gamma_initializer": {"class_name": "Ones", "config": {}}, "beta_initializer": {"class_name": "Zeros", "config": {}}, "beta_regularizer": null, "gamma_constraint": null, "center": true, "scale": true, "moving_mean_initializer": {"class_name": "Zeros", "config": {}}, "momentum": 0.99, "trainable": true, "gamma_regularizer": null, "epsilon": 0.001}, "class_name": "BatchNormalization"}, {"name": "activation_30", "inbound_nodes": [[["bn4c_branch2b", 0, 0, {}]]], "config": {"name": "activation_30", "activation": "relu", "trainable": true}, "class_name": "Activation"}, {"name": "res4c_branch2c", "inbound_nodes": [[["activation_30", 0, 0, {}]]], "config": {"kernel_size": [1, 1], "name": "res4c_branch2c", "bias_initializer": {"class_name": "Zeros", "config": {}}, "kernel_regularizer": null, "activity_regularizer": null, "strides": [1, 1], "padding": "valid", "bias_regularizer": null, "use_bias": true, "kernel_constraint": null, "bias_constraint": null, "kernel_initializer": {"class_name": "VarianceScaling", "config": {"seed": null, "mode": "fan_in", "distribution": "normal", "scale": 2.0}}, "activation": "linear", "filters": 1024, "data_format": "channels_last", "trainable": true, "dilation_rate": [1, 1]}, "class_name": "Conv2D"}, {"name": "bn4c_branch2c", "inbound_nodes": [[["res4c_branch2c", 0, 0, {}]]], "config": {"name": "bn4c_branch2c", "beta_constraint": null, "axis": 3, "moving_variance_initializer": {"class_name": "Ones", "config": {}}, "gamma_initializer": {"class_name": "Ones", "config": {}}, "beta_initializer": {"class_name": "Zeros", "config": {}}, "beta_regularizer": null, "gamma_constraint": null, "center": true, "scale": true, "moving_mean_initializer": {"class_name": "Zeros", "config": {}}, "momentum": 0.99, "trainable": true, "gamma_regularizer": null, "epsilon": 0.001}, "class_name": "BatchNormalization"}, {"name": "add_10", "inbound_nodes": [[["bn4c_branch2c", 0, 0, {}], ["activation_28", 0, 0, {}]]], "config": {"name": "add_10", "trainable": true}, "class_name": "Add"}, {"name": "activation_31", "inbound_nodes": [[["add_10", 0, 0, {}]]], "config": {"name": "activation_31", "activation": "relu", "trainable": true}, "class_name": "Activation"}, {"name": "res4d_branch2a", "inbound_nodes": [[["activation_31", 0, 0, {}]]], "config": {"kernel_size": [1, 1], "name": "res4d_branch2a", "bias_initializer": {"class_name": "Zeros", "config": {}}, "kernel_regularizer": null, "activity_regularizer": null, "strides": [1, 1], "padding": "valid", "bias_regularizer": null, "use_bias": true, "kernel_constraint": null, "bias_constraint": null, "kernel_initializer": {"class_name": "VarianceScaling", "config": {"seed": null, "mode": "fan_in", "distribution": "normal", "scale": 2.0}}, "activation": "linear", "filters": 256, "data_format": "channels_last", "trainable": true, "dilation_rate": [1, 1]}, "class_name": "Conv2D"}, {"name": "bn4d_branch2a", "inbound_nodes": [[["res4d_branch2a", 0, 0, {}]]], "config": {"name": "bn4d_branch2a", "beta_constraint": null, "axis": 3, "moving_variance_initializer": {"class_name": "Ones", "config": {}}, "gamma_initializer": {"class_name": "Ones", "config": {}}, "beta_initializer": {"class_name": "Zeros", "config": {}}, "beta_regularizer": null, "gamma_constraint": null, "center": true, "scale": true, "moving_mean_initializer": {"class_name": "Zeros", "config": {}}, "momentum": 0.99, "trainable": true, "gamma_regularizer": null, "epsilon": 0.001}, "class_name": "BatchNormalization"}, {"name": "activation_32", "inbound_nodes": [[["bn4d_branch2a", 0, 0, {}]]], "config": {"name": "activation_32", "activation": "relu", "trainable": true}, "class_name": "Activation"}, {"name": "res4d_branch2b", "inbound_nodes": [[["activation_32", 0, 0, {}]]], "config": {"kernel_size": [3, 3], "name": "res4d_branch2b", "bias_initializer": {"class_name": "Zeros", "config": {}}, "kernel_regularizer": null, "activity_regularizer": null, "strides": [1, 1], "padding": "same", "bias_regularizer": null, "use_bias": true, "kernel_constraint": null, "bias_constraint": null, "kernel_initializer": {"class_name": "VarianceScaling", "config": {"seed": null, "mode": "fan_in", "distribution": "normal", "scale": 2.0}}, "activation": "linear", "filters": 256, "data_format": "channels_last", "trainable": true, "dilation_rate": [1, 1]}, "class_name": "Conv2D"}, {"name": "bn4d_branch2b", "inbound_nodes": [[["res4d_branch2b", 0, 0, {}]]], "config": {"name": "bn4d_branch2b", "beta_constraint": null, "axis": 3, "moving_variance_initializer": {"class_name": "Ones", "config": {}}, "gamma_initializer": {"class_name": "Ones", "config": {}}, "beta_initializer": {"class_name": "Zeros", "config": {}}, "beta_regularizer": null, "gamma_constraint": null, "center": true, "scale": true, "moving_mean_initializer": {"class_name": "Zeros", "config": {}}, "momentum": 0.99, "trainable": true, "gamma_regularizer": null, "epsilon": 0.001}, "class_name": "BatchNormalization"}, {"name": "activation_33", "inbound_nodes": [[["bn4d_branch2b", 0, 0, {}]]], "config": {"name": "activation_33", "activation": "relu", "trainable": true}, "class_name": "Activation"}, {"name": "res4d_branch2c", "inbound_nodes": [[["activation_33", 0, 0, {}]]], "config": {"kernel_size": [1, 1], "name": "res4d_branch2c", "bias_initializer": {"class_name": "Zeros", "config": {}}, "kernel_regularizer": null, "activity_regularizer": null, "strides": [1, 1], "padding": "valid", "bias_regularizer": null, "use_bias": true, "kernel_constraint": null, "bias_constraint": null, "kernel_initializer": {"class_name": "VarianceScaling", "config": {"seed": null, "mode": "fan_in", "distribution": "normal", "scale": 2.0}}, "activation": "linear", "filters": 1024, "data_format": "channels_last", "trainable": true, "dilation_rate": [1, 1]}, "class_name": "Conv2D"}, {"name": "bn4d_branch2c", "inbound_nodes": [[["res4d_branch2c", 0, 0, {}]]], "config": {"name": "bn4d_branch2c", "beta_constraint": null, "axis": 3, "moving_variance_initializer": {"class_name": "Ones", "config": {}}, "gamma_initializer": {"class_name": "Ones", "config": {}}, "beta_initializer": {"class_name": "Zeros", "config": {}}, "beta_regularizer": null, "gamma_constraint": null, "center": true, "scale": true, "moving_mean_initializer": {"class_name": "Zeros", "config": {}}, "momentum": 0.99, "trainable": true, "gamma_regularizer": null, "epsilon": 0.001}, "class_name": "BatchNormalization"}, {"name": "add_11", "inbound_nodes": [[["bn4d_branch2c", 0, 0, {}], ["activation_31", 0, 0, {}]]], "config": {"name": "add_11", "trainable": true}, "class_name": "Add"}, {"name": "activation_34", "inbound_nodes": [[["add_11", 0, 0, {}]]], "config": {"name": "activation_34", "activation": "relu", "trainable": true}, "class_name": "Activation"}, {"name": "res4e_branch2a", "inbound_nodes": [[["activation_34", 0, 0, {}]]], "config": {"kernel_size": [1, 1], "name": "res4e_branch2a", "bias_initializer": {"class_name": "Zeros", "config": {}}, "kernel_regularizer": null, "activity_regularizer": null, "strides": [1, 1], "padding": "valid", "bias_regularizer": null, "use_bias": true, "kernel_constraint": null, "bias_constraint": null, "kernel_initializer": {"class_name": "VarianceScaling", "config": {"seed": null, "mode": "fan_in", "distribution": "normal", "scale": 2.0}}, "activation": "linear", "filters": 256, "data_format": "channels_last", "trainable": true, "dilation_rate": [1, 1]}, "class_name": "Conv2D"}, {"name": "bn4e_branch2a", "inbound_nodes": [[["res4e_branch2a", 0, 0, {}]]], "config": {"name": "bn4e_branch2a", "beta_constraint": null, "axis": 3, "moving_variance_initializer": {"class_name": "Ones", "config": {}}, "gamma_initializer": {"class_name": "Ones", "config": {}}, "beta_initializer": {"class_name": "Zeros", "config": {}}, "beta_regularizer": null, "gamma_constraint": null, "center": true, "scale": true, "moving_mean_initializer": {"class_name": "Zeros", "config": {}}, "momentum": 0.99, "trainable": true, "gamma_regularizer": null, "epsilon": 0.001}, "class_name": "BatchNormalization"}, {"name": "activation_35", "inbound_nodes": [[["bn4e_branch2a", 0, 0, {}]]], "config": {"name": "activation_35", "activation": "relu", "trainable": true}, "class_name": "Activation"}, {"name": "res4e_branch2b", "inbound_nodes": [[["activation_35", 0, 0, {}]]], "config": {"kernel_size": [3, 3], "name": "res4e_branch2b", "bias_initializer": {"class_name": "Zeros", "config": {}}, "kernel_regularizer": null, "activity_regularizer": null, "strides": [1, 1], "padding": "same", "bias_regularizer": null, "use_bias": true, "kernel_constraint": null, "bias_constraint": null, "kernel_initializer": {"class_name": "VarianceScaling", "config": {"seed": null, "mode": "fan_in", "distribution": "normal", "scale": 2.0}}, "activation": "linear", "filters": 256, "data_format": "channels_last", "trainable": true, "dilation_rate": [1, 1]}, "class_name": "Conv2D"}, {"name": "bn4e_branch2b", "inbound_nodes": [[["res4e_branch2b", 0, 0, {}]]], "config": {"name": "bn4e_branch2b", "beta_constraint": null, "axis": 3, "moving_variance_initializer": {"class_name": "Ones", "config": {}}, "gamma_initializer": {"class_name": "Ones", "config": {}}, "beta_initializer": {"class_name": "Zeros", "config": {}}, "beta_regularizer": null, "gamma_constraint": null, "center": true, "scale": true, "moving_mean_initializer": {"class_name": "Zeros", "config": {}}, "momentum": 0.99, "trainable": true, "gamma_regularizer": null, "epsilon": 0.001}, "class_name": "BatchNormalization"}, {"name": "activation_36", "inbound_nodes": [[["bn4e_branch2b", 0, 0, {}]]], "config": {"name": "activation_36", "activation": "relu", "trainable": true}, "class_name": "Activation"}, {"name": "res4e_branch2c", "inbound_nodes": [[["activation_36", 0, 0, {}]]], "config": {"kernel_size": [1, 1], "name": "res4e_branch2c", "bias_initializer": {"class_name": "Zeros", "config": {}}, "kernel_regularizer": null, "activity_regularizer": null, "strides": [1, 1], "padding": "valid", "bias_regularizer": null, "use_bias": true, "kernel_constraint": null, "bias_constraint": null, "kernel_initializer": {"class_name": "VarianceScaling", "config": {"seed": null, "mode": "fan_in", "distribution": "normal", "scale": 2.0}}, "activation": "linear", "filters": 1024, "data_format": "channels_last", "trainable": true, "dilation_rate": [1, 1]}, "class_name": "Conv2D"}, {"name": "bn4e_branch2c", "inbound_nodes": [[["res4e_branch2c", 0, 0, {}]]], "config": {"name": "bn4e_branch2c", "beta_constraint": null, "axis": 3, "moving_variance_initializer": {"class_name": "Ones", "config": {}}, "gamma_initializer": {"class_name": "Ones", "config": {}}, "beta_initializer": {"class_name": "Zeros", "config": {}}, "beta_regularizer": null, "gamma_constraint": null, "center": true, "scale": true, "moving_mean_initializer": {"class_name": "Zeros", "config": {}}, "momentum": 0.99, "trainable": true, "gamma_regularizer": null, "epsilon": 0.001}, "class_name": "BatchNormalization"}, {"name": "add_12", "inbound_nodes": [[["bn4e_branch2c", 0, 0, {}], ["activation_34", 0, 0, {}]]], "config": {"name": "add_12", "trainable": true}, "class_name": "Add"}, {"name": "activation_37", "inbound_nodes": [[["add_12", 0, 0, {}]]], "config": {"name": "activation_37", "activation": "relu", "trainable": true}, "class_name": "Activation"}, {"name": "res4f_branch2a", "inbound_nodes": [[["activation_37", 0, 0, {}]]], "config": {"kernel_size": [1, 1], "name": "res4f_branch2a", "bias_initializer": {"class_name": "Zeros", "config": {}}, "kernel_regularizer": null, "activity_regularizer": null, "strides": [1, 1], "padding": "valid", "bias_regularizer": null, "use_bias": true, "kernel_constraint": null, "bias_constraint": null, "kernel_initializer": {"class_name": "VarianceScaling", "config": {"seed": null, "mode": "fan_in", "distribution": "normal", "scale": 2.0}}, "activation": "linear", "filters": 256, "data_format": "channels_last", "trainable": true, "dilation_rate": [1, 1]}, "class_name": "Conv2D"}, {"name": "bn4f_branch2a", "inbound_nodes": [[["res4f_branch2a", 0, 0, {}]]], "config": {"name": "bn4f_branch2a", "beta_constraint": null, "axis": 3, "moving_variance_initializer": {"class_name": "Ones", "config": {}}, "gamma_initializer": {"class_name": "Ones", "config": {}}, "beta_initializer": {"class_name": "Zeros", "config": {}}, "beta_regularizer": null, "gamma_constraint": null, "center": true, "scale": true, "moving_mean_initializer": {"class_name": "Zeros", "config": {}}, "momentum": 0.99, "trainable": true, "gamma_regularizer": null, "epsilon": 0.001}, "class_name": "BatchNormalization"}, {"name": "activation_38", "inbound_nodes": [[["bn4f_branch2a", 0, 0, {}]]], "config": {"name": "activation_38", "activation": "relu", "trainable": true}, "class_name": "Activation"}, {"name": "res4f_branch2b", "inbound_nodes": [[["activation_38", 0, 0, {}]]], "config": {"kernel_size": [3, 3], "name": "res4f_branch2b", "bias_initializer": {"class_name": "Zeros", "config": {}}, "kernel_regularizer": null, "activity_regularizer": null, "strides": [1, 1], "padding": "same", "bias_regularizer": null, "use_bias": true, "kernel_constraint": null, "bias_constraint": null, "kernel_initializer": {"class_name": "VarianceScaling", "config": {"seed": null, "mode": "fan_in", "distribution": "normal", "scale": 2.0}}, "activation": "linear", "filters": 256, "data_format": "channels_last", "trainable": true, "dilation_rate": [1, 1]}, "class_name": "Conv2D"}, {"name": "bn4f_branch2b", "inbound_nodes": [[["res4f_branch2b", 0, 0, {}]]], "config": {"name": "bn4f_branch2b", "beta_constraint": null, "axis": 3, "moving_variance_initializer": {"class_name": "Ones", "config": {}}, "gamma_initializer": {"class_name": "Ones", "config": {}}, "beta_initializer": {"class_name": "Zeros", "config": {}}, "beta_regularizer": null, "gamma_constraint": null, "center": true, "scale": true, "moving_mean_initializer": {"class_name": "Zeros", "config": {}}, "momentum": 0.99, "trainable": true, "gamma_regularizer": null, "epsilon": 0.001}, "class_name": "BatchNormalization"}, {"name": "activation_39", "inbound_nodes": [[["bn4f_branch2b", 0, 0, {}]]], "config": {"name": "activation_39", "activation": "relu", "trainable": true}, "class_name": "Activation"}, {"name": "res4f_branch2c", "inbound_nodes": [[["activation_39", 0, 0, {}]]], "config": {"kernel_size": [1, 1], "name": "res4f_branch2c", "bias_initializer": {"class_name": "Zeros", "config": {}}, "kernel_regularizer": null, "activity_regularizer": null, "strides": [1, 1], "padding": "valid", "bias_regularizer": null, "use_bias": true, "kernel_constraint": null, "bias_constraint": null, "kernel_initializer": {"class_name": "VarianceScaling", "config": {"seed": null, "mode": "fan_in", "distribution": "normal", "scale": 2.0}}, "activation": "linear", "filters": 1024, "data_format": "channels_last", "trainable": true, "dilation_rate": [1, 1]}, "class_name": "Conv2D"}, {"name": "bn4f_branch2c", "inbound_nodes": [[["res4f_branch2c", 0, 0, {}]]], "config": {"name": "bn4f_branch2c", "beta_constraint": null, "axis": 3, "moving_variance_initializer": {"class_name": "Ones", "config": {}}, "gamma_initializer": {"class_name": "Ones", "config": {}}, "beta_initializer": {"class_name": "Zeros", "config": {}}, "beta_regularizer": null, "gamma_constraint": null, "center": true, "scale": true, "moving_mean_initializer": {"class_name": "Zeros", "config": {}}, "momentum": 0.99, "trainable": true, "gamma_regularizer": null, "epsilon": 0.001}, "class_name": "BatchNormalization"}, {"name": "add_13", "inbound_nodes": [[["bn4f_branch2c", 0, 0, {}], ["activation_37", 0, 0, {}]]], "config": {"name": "add_13", "trainable": true}, "class_name": "Add"}, {"name": "activation_40", "inbound_nodes": [[["add_13", 0, 0, {}]]], "config": {"name": "activation_40", "activation": "relu", "trainable": true}, "class_name": "Activation"}, {"name": "res5a_branch2a", "inbound_nodes": [[["activation_40", 0, 0, {}]]], "config": {"kernel_size": [1, 1], "name": "res5a_branch2a", "bias_initializer": {"class_name": "Zeros", "config": {}}, "kernel_regularizer": null, "activity_regularizer": null, "strides": [2, 2], "padding": "valid", "bias_regularizer": null, "use_bias": true, "kernel_constraint": null, "bias_constraint": null, "kernel_initializer": {"class_name": "VarianceScaling", "config": {"seed": null, "mode": "fan_in", "distribution": "normal", "scale": 2.0}}, "activation": "linear", "filters": 512, "data_format": "channels_last", "trainable": true, "dilation_rate": [1, 1]}, "class_name": "Conv2D"}, {"name": "bn5a_branch2a", "inbound_nodes": [[["res5a_branch2a", 0, 0, {}]]], "config": {"name": "bn5a_branch2a", "beta_constraint": null, "axis": 3, "moving_variance_initializer": {"class_name": "Ones", "config": {}}, "gamma_initializer": {"class_name": "Ones", "config": {}}, "beta_initializer": {"class_name": "Zeros", "config": {}}, "beta_regularizer": null, "gamma_constraint": null, "center": true, "scale": true, "moving_mean_initializer": {"class_name": "Zeros", "config": {}}, "momentum": 0.99, "trainable": true, "gamma_regularizer": null, "epsilon": 0.001}, "class_name": "BatchNormalization"}, {"name": "activation_41", "inbound_nodes": [[["bn5a_branch2a", 0, 0, {}]]], "config": {"name": "activation_41", "activation": "relu", "trainable": true}, "class_name": "Activation"}, {"name": "res5a_branch2b", "inbound_nodes": [[["activation_41", 0, 0, {}]]], "config": {"kernel_size": [3, 3], "name": "res5a_branch2b", "bias_initializer": {"class_name": "Zeros", "config": {}}, "kernel_regularizer": null, "activity_regularizer": null, "strides": [1, 1], "padding": "same", "bias_regularizer": null, "use_bias": true, "kernel_constraint": null, "bias_constraint": null, "kernel_initializer": {"class_name": "VarianceScaling", "config": {"seed": null, "mode": "fan_in", "distribution": "normal", "scale": 2.0}}, "activation": "linear", "filters": 512, "data_format": "channels_last", "trainable": true, "dilation_rate": [1, 1]}, "class_name": "Conv2D"}, {"name": "bn5a_branch2b", "inbound_nodes": [[["res5a_branch2b", 0, 0, {}]]], "config": {"name": "bn5a_branch2b", "beta_constraint": null, "axis": 3, "moving_variance_initializer": {"class_name": "Ones", "config": {}}, "gamma_initializer": {"class_name": "Ones", "config": {}}, "beta_initializer": {"class_name": "Zeros", "config": {}}, "beta_regularizer": null, "gamma_constraint": null, "center": true, "scale": true, "moving_mean_initializer": {"class_name": "Zeros", "config": {}}, "momentum": 0.99, "trainable": true, "gamma_regularizer": null, "epsilon": 0.001}, "class_name": "BatchNormalization"}, {"name": "activation_42", "inbound_nodes": [[["bn5a_branch2b", 0, 0, {}]]], "config": {"name": "activation_42", "activation": "relu", "trainable": true}, "class_name": "Activation"}, {"name": "res5a_branch2c", "inbound_nodes": [[["activation_42", 0, 0, {}]]], "config": {"kernel_size": [1, 1], "name": "res5a_branch2c", "bias_initializer": {"class_name": "Zeros", "config": {}}, "kernel_regularizer": null, "activity_regularizer": null, "strides": [1, 1], "padding": "valid", "bias_regularizer": null, "use_bias": true, "kernel_constraint": null, "bias_constraint": null, "kernel_initializer": {"class_name": "VarianceScaling", "config": {"seed": null, "mode": "fan_in", "distribution": "normal", "scale": 2.0}}, "activation": "linear", "filters": 2048, "data_format": "channels_last", "trainable": true, "dilation_rate": [1, 1]}, "class_name": "Conv2D"}, {"name": "res5a_branch1", "inbound_nodes": [[["activation_40", 0, 0, {}]]], "config": {"kernel_size": [1, 1], "name": "res5a_branch1", "bias_initializer": {"class_name": "Zeros", "config": {}}, "kernel_regularizer": null, "activity_regularizer": null, "strides": [2, 2], "padding": "valid", "bias_regularizer": null, "use_bias": true, "kernel_constraint": null, "bias_constraint": null, "kernel_initializer": {"class_name": "VarianceScaling", "config": {"seed": null, "mode": "fan_in", "distribution": "normal", "scale": 2.0}}, "activation": "linear", "filters": 2048, "data_format": "channels_last", "trainable": true, "dilation_rate": [1, 1]}, "class_name": "Conv2D"}, {"name": "bn5a_branch2c", "inbound_nodes": [[["res5a_branch2c", 0, 0, {}]]], "config": {"name": "bn5a_branch2c", "beta_constraint": null, "axis": 3, "moving_variance_initializer": {"class_name": "Ones", "config": {}}, "gamma_initializer": {"class_name": "Ones", "config": {}}, "beta_initializer": {"class_name": "Zeros", "config": {}}, "beta_regularizer": null, "gamma_constraint": null, "center": true, "scale": true, "moving_mean_initializer": {"class_name": "Zeros", "config": {}}, "momentum": 0.99, "trainable": true, "gamma_regularizer": null, "epsilon": 0.001}, "class_name": "BatchNormalization"}, {"name": "bn5a_branch1", "inbound_nodes": [[["res5a_branch1", 0, 0, {}]]], "config": {"name": "bn5a_branch1", "beta_constraint": null, "axis": 3, "moving_variance_initializer": {"class_name": "Ones", "config": {}}, "gamma_initializer": {"class_name": "Ones", "config": {}}, "beta_initializer": {"class_name": "Zeros", "config": {}}, "beta_regularizer": null, "gamma_constraint": null, "center": true, "scale": true, "moving_mean_initializer": {"class_name": "Zeros", "config": {}}, "momentum": 0.99, "trainable": true, "gamma_regularizer": null, "epsilon": 0.001}, "class_name": "BatchNormalization"}, {"name": "add_14", "inbound_nodes": [[["bn5a_branch2c", 0, 0, {}], ["bn5a_branch1", 0, 0, {}]]], "config": {"name": "add_14", "trainable": true}, "class_name": "Add"}, {"name": "activation_43", "inbound_nodes": [[["add_14", 0, 0, {}]]], "config": {"name": "activation_43", "activation": "relu", "trainable": true}, "class_name": "Activation"}, {"name": "res5b_branch2a", "inbound_nodes": [[["activation_43", 0, 0, {}]]], "config": {"kernel_size": [1, 1], "name": "res5b_branch2a", "bias_initializer": {"class_name": "Zeros", "config": {}}, "kernel_regularizer": null, "activity_regularizer": null, "strides": [1, 1], "padding": "valid", "bias_regularizer": null, "use_bias": true, "kernel_constraint": null, "bias_constraint": null, "kernel_initializer": {"class_name": "VarianceScaling", "config": {"seed": null, "mode": "fan_in", "distribution": "normal", "scale": 2.0}}, "activation": "linear", "filters": 512, "data_format": "channels_last", "trainable": true, "dilation_rate": [1, 1]}, "class_name": "Conv2D"}, {"name": "bn5b_branch2a", "inbound_nodes": [[["res5b_branch2a", 0, 0, {}]]], "config": {"name": "bn5b_branch2a", "beta_constraint": null, "axis": 3, "moving_variance_initializer": {"class_name": "Ones", "config": {}}, "gamma_initializer": {"class_name": "Ones", "config": {}}, "beta_initializer": {"class_name": "Zeros", "config": {}}, "beta_regularizer": null, "gamma_constraint": null, "center": true, "scale": true, "moving_mean_initializer": {"class_name": "Zeros", "config": {}}, "momentum": 0.99, "trainable": true, "gamma_regularizer": null, "epsilon": 0.001}, "class_name": "BatchNormalization"}, {"name": "activation_44", "inbound_nodes": [[["bn5b_branch2a", 0, 0, {}]]], "config": {"name": "activation_44", "activation": "relu", "trainable": true}, "class_name": "Activation"}, {"name": "res5b_branch2b", "inbound_nodes": [[["activation_44", 0, 0, {}]]], "config": {"kernel_size": [3, 3], "name": "res5b_branch2b", "bias_initializer": {"class_name": "Zeros", "config": {}}, "kernel_regularizer": null, "activity_regularizer": null, "strides": [1, 1], "padding": "same", "bias_regularizer": null, "use_bias": true, "kernel_constraint": null, "bias_constraint": null, "kernel_initializer": {"class_name": "VarianceScaling", "config": {"seed": null, "mode": "fan_in", "distribution": "normal", "scale": 2.0}}, "activation": "linear", "filters": 512, "data_format": "channels_last", "trainable": true, "dilation_rate": [1, 1]}, "class_name": "Conv2D"}, {"name": "bn5b_branch2b", "inbound_nodes": [[["res5b_branch2b", 0, 0, {}]]], "config": {"name": "bn5b_branch2b", "beta_constraint": null, "axis": 3, "moving_variance_initializer": {"class_name": "Ones", "config": {}}, "gamma_initializer": {"class_name": "Ones", "config": {}}, "beta_initializer": {"class_name": "Zeros", "config": {}}, "beta_regularizer": null, "gamma_constraint": null, "center": true, "scale": true, "moving_mean_initializer": {"class_name": "Zeros", "config": {}}, "momentum": 0.99, "trainable": true, "gamma_regularizer": null, "epsilon": 0.001}, "class_name": "BatchNormalization"}, {"name": "activation_45", "inbound_nodes": [[["bn5b_branch2b", 0, 0, {}]]], "config": {"name": "activation_45", "activation": "relu", "trainable": true}, "class_name": "Activation"}, {"name": "res5b_branch2c", "inbound_nodes": [[["activation_45", 0, 0, {}]]], "config": {"kernel_size": [1, 1], "name": "res5b_branch2c", "bias_initializer": {"class_name": "Zeros", "config": {}}, "kernel_regularizer": null, "activity_regularizer": null, "strides": [1, 1], "padding": "valid", "bias_regularizer": null, "use_bias": true, "kernel_constraint": null, "bias_constraint": null, "kernel_initializer": {"class_name": "VarianceScaling", "config": {"seed": null, "mode": "fan_in", "distribution": "normal", "scale": 2.0}}, "activation": "linear", "filters": 2048, "data_format": "channels_last", "trainable": true, "dilation_rate": [1, 1]}, "class_name": "Conv2D"}, {"name": "bn5b_branch2c", "inbound_nodes": [[["res5b_branch2c", 0, 0, {}]]], "config": {"name": "bn5b_branch2c", "beta_constraint": null, "axis": 3, "moving_variance_initializer": {"class_name": "Ones", "config": {}}, "gamma_initializer": {"class_name": "Ones", "config": {}}, "beta_initializer": {"class_name": "Zeros", "config": {}}, "beta_regularizer": null, "gamma_constraint": null, "center": true, "scale": true, "moving_mean_initializer": {"class_name": "Zeros", "config": {}}, "momentum": 0.99, "trainable": true, "gamma_regularizer": null, "epsilon": 0.001}, "class_name": "BatchNormalization"}, {"name": "add_15", "inbound_nodes": [[["bn5b_branch2c", 0, 0, {}], ["activation_43", 0, 0, {}]]], "config": {"name": "add_15", "trainable": true}, "class_name": "Add"}, {"name": "activation_46", "inbound_nodes": [[["add_15", 0, 0, {}]]], "config": {"name": "activation_46", "activation": "relu", "trainable": true}, "class_name": "Activation"}, {"name": "res5c_branch2a", "inbound_nodes": [[["activation_46", 0, 0, {}]]], "config": {"kernel_size": [1, 1], "name": "res5c_branch2a", "bias_initializer": {"class_name": "Zeros", "config": {}}, "kernel_regularizer": null, "activity_regularizer": null, "strides": [1, 1], "padding": "valid", "bias_regularizer": null, "use_bias": true, "kernel_constraint": null, "bias_constraint": null, "kernel_initializer": {"class_name": "VarianceScaling", "config": {"seed": null, "mode": "fan_in", "distribution": "normal", "scale": 2.0}}, "activation": "linear", "filters": 512, "data_format": "channels_last", "trainable": true, "dilation_rate": [1, 1]}, "class_name": "Conv2D"}, {"name": "bn5c_branch2a", "inbound_nodes": [[["res5c_branch2a", 0, 0, {}]]], "config": {"name": "bn5c_branch2a", "beta_constraint": null, "axis": 3, "moving_variance_initializer": {"class_name": "Ones", "config": {}}, "gamma_initializer": {"class_name": "Ones", "config": {}}, "beta_initializer": {"class_name": "Zeros", "config": {}}, "beta_regularizer": null, "gamma_constraint": null, "center": true, "scale": true, "moving_mean_initializer": {"class_name": "Zeros", "config": {}}, "momentum": 0.99, "trainable": true, "gamma_regularizer": null, "epsilon": 0.001}, "class_name": "BatchNormalization"}, {"name": "activation_47", "inbound_nodes": [[["bn5c_branch2a", 0, 0, {}]]], "config": {"name": "activation_47", "activation": "relu", "trainable": true}, "class_name": "Activation"}, {"name": "res5c_branch2b", "inbound_nodes": [[["activation_47", 0, 0, {}]]], "config": {"kernel_size": [3, 3], "name": "res5c_branch2b", "bias_initializer": {"class_name": "Zeros", "config": {}}, "kernel_regularizer": null, "activity_regularizer": null, "strides": [1, 1], "padding": "same", "bias_regularizer": null, "use_bias": true, "kernel_constraint": null, "bias_constraint": null, "kernel_initializer": {"class_name": "VarianceScaling", "config": {"seed": null, "mode": "fan_in", "distribution": "normal", "scale": 2.0}}, "activation": "linear", "filters": 512, "data_format": "channels_last", "trainable": true, "dilation_rate": [1, 1]}, "class_name": "Conv2D"}, {"name": "bn5c_branch2b", "inbound_nodes": [[["res5c_branch2b", 0, 0, {}]]], "config": {"name": "bn5c_branch2b", "beta_constraint": null, "axis": 3, "moving_variance_initializer": {"class_name": "Ones", "config": {}}, "gamma_initializer": {"class_name": "Ones", "config": {}}, "beta_initializer": {"class_name": "Zeros", "config": {}}, "beta_regularizer": null, "gamma_constraint": null, "center": true, "scale": true, "moving_mean_initializer": {"class_name": "Zeros", "config": {}}, "momentum": 0.99, "trainable": true, "gamma_regularizer": null, "epsilon": 0.001}, "class_name": "BatchNormalization"}, {"name": "activation_48", "inbound_nodes": [[["bn5c_branch2b", 0, 0, {}]]], "config": {"name": "activation_48", "activation": "relu", "trainable": true}, "class_name": "Activation"}, {"name": "res5c_branch2c", "inbound_nodes": [[["activation_48", 0, 0, {}]]], "config": {"kernel_size": [1, 1], "name": "res5c_branch2c", "bias_initializer": {"class_name": "Zeros", "config": {}}, "kernel_regularizer": null, "activity_regularizer": null, "strides": [1, 1], "padding": "valid", "bias_regularizer": null, "use_bias": true, "kernel_constraint": null, "bias_constraint": null, "kernel_initializer": {"class_name": "VarianceScaling", "config": {"seed": null, "mode": "fan_in", "distribution": "normal", "scale": 2.0}}, "activation": "linear", "filters": 2048, "data_format": "channels_last", "trainable": true, "dilation_rate": [1, 1]}, "class_name": "Conv2D"}, {"name": "bn5c_branch2c", "inbound_nodes": [[["res5c_branch2c", 0, 0, {}]]], "config": {"name": "bn5c_branch2c", "beta_constraint": null, "axis": 3, "moving_variance_initializer": {"class_name": "Ones", "config": {}}, "gamma_initializer": {"class_name": "Ones", "config": {}}, "beta_initializer": {"class_name": "Zeros", "config": {}}, "beta_regularizer": null, "gamma_constraint": null, "center": true, "scale": true, "moving_mean_initializer": {"class_name": "Zeros", "config": {}}, "momentum": 0.99, "trainable": true, "gamma_regularizer": null, "epsilon": 0.001}, "class_name": "BatchNormalization"}, {"name": "add_16", "inbound_nodes": [[["bn5c_branch2c", 0, 0, {}], ["activation_46", 0, 0, {}]]], "config": {"name": "add_16", "trainable": true}, "class_name": "Add"}, {"name": "activation_49", "inbound_nodes": [[["add_16", 0, 0, {}]]], "config": {"name": "activation_49", "activation": "relu", "trainable": true}, "class_name": "Activation"}, {"name": "global_max_pooling2d_1", "inbound_nodes": [[["activation_49", 0, 0, {}]]], "config": {"name": "global_max_pooling2d_1", "data_format": "channels_last", "trainable": true}, "class_name": "GlobalMaxPooling2D"}, {"name": "dense_1", "inbound_nodes": [[["global_max_pooling2d_1", 0, 0, {}]]], "config": {"kernel_constraint": null, "name": "dense_1", "bias_initializer": {"class_name": "Zeros", "config": {}}, "kernel_regularizer": null, "activity_regularizer": null, "units": 512, "bias_regularizer": null, "use_bias": true, "bias_constraint": null, "kernel_initializer": {"class_name": "VarianceScaling", "config": {"seed": null, "mode": "fan_avg", "distribution": "uniform", "scale": 1.0}}, "activation": "relu", "trainable": true}, "class_name": "Dense"}, {"name": "batch_normalization_1", "inbound_nodes": [[["dense_1", 0, 0, {}]]], "config": {"name": "batch_normalization_1", "beta_constraint": null, "axis": -1, "moving_variance_initializer": {"class_name": "Ones", "config": {}}, "gamma_initializer": {"class_name": "Ones", "config": {}}, "beta_initializer": {"class_name": "Zeros", "config": {}}, "beta_regularizer": null, "gamma_constraint": null, "center": true, "scale": true, "moving_mean_initializer": {"class_name": "Zeros", "config": {}}, "momentum": 0.99, "trainable": true, "gamma_regularizer": null, "epsilon": 0.001}, "class_name": "BatchNormalization"}, {"name": "dense_2", "inbound_nodes": [[["batch_normalization_1", 0, 0, {}]]], "config": {"kernel_constraint": null, "name": "dense_2", "bias_initializer": {"class_name": "Zeros", "config": {}}, "kernel_regularizer": null, "activity_regularizer": null, "units": 128, "bias_regularizer": null, "use_bias": true, "bias_constraint": null, "kernel_initializer": {"class_name": "VarianceScaling", "config": {"seed": null, "mode": "fan_avg", "distribution": "uniform", "scale": 1.0}}, "activation": "relu", "trainable": true}, "class_name": "Dense"}, {"name": "batch_normalization_2", "inbound_nodes": [[["dense_2", 0, 0, {}]]], "config": {"name": "batch_normalization_2", "beta_constraint": null, "axis": -1, "moving_variance_initializer": {"class_name": "Ones", "config": {}}, "gamma_initializer": {"class_name": "Ones", "config": {}}, "beta_initializer": {"class_name": "Zeros", "config": {}}, "beta_regularizer": null, "gamma_constraint": null, "center": true, "scale": true, "moving_mean_initializer": {"class_name": "Zeros", "config": {}}, "momentum": 0.99, "trainable": true, "gamma_regularizer": null, "epsilon": 0.001}, "class_name": "BatchNormalization"}, {"name": "dense_3", "inbound_nodes": [[["batch_normalization_2", 0, 0, {}]]], "config": {"kernel_constraint": null, "name": "dense_3", "bias_initializer": {"class_name": "Zeros", "config": {}}, "kernel_regularizer": null, "activity_regularizer": null, "units": 2, "bias_regularizer": null, "use_bias": true, "bias_constraint": null, "kernel_initializer": {"class_name": "VarianceScaling", "config": {"seed": null, "mode": "fan_avg", "distribution": "uniform", "scale": 1.0}}, "activation": "softmax", "trainable": true}, "class_name": "Dense"}]}}, "keras_version": "2.2.4"}, "weightsManifest": [{"paths": ["group1-shard1of24", "group1-shard2of24", "group1-shard3of24", "group1-shard4of24", "group1-shard5of24", "group1-shard6of24", "group1-shard7of24", "group1-shard8of24", "group1-shard9of24", "group1-shard10of24", "group1-shard11of24", "group1-shard12of24", "group1-shard13of24", "group1-shard14of24", "group1-shard15of24", "group1-shard16of24", "group1-shard17of24", "group1-shard18of24", "group1-shard19of24", "group1-shard20of24", "group1-shard21of24", "group1-shard22of24", "group1-shard23of24", "group1-shard24of24"], "weights": [{"dtype": "float32", "name": "batch_normalization_1/gamma", "shape": [512]}, {"dtype": "float32", "name": "batch_normalization_1/beta", "shape": [512]}, {"dtype": "float32", "name": "batch_normalization_1/moving_mean", "shape": [512]}, {"dtype": "float32", "name": "batch_normalization_1/moving_variance", "shape": [512]}, {"dtype": "float32", "name": "batch_normalization_2/gamma", "shape": [128]}, {"dtype": "float32", "name": "batch_normalization_2/beta", "shape": [128]}, {"dtype": "float32", "name": "batch_normalization_2/moving_mean", "shape": [128]}, {"dtype": "float32", "name": "batch_normalization_2/moving_variance", "shape": [128]}, {"dtype": "float32", "name": "bn2a_branch1/gamma", "shape": [256]}, {"dtype": "float32", "name": "bn2a_branch1/beta", "shape": [256]}, {"dtype": "float32", "name": "bn2a_branch1/moving_mean", "shape": [256]}, {"dtype": "float32", "name": "bn2a_branch1/moving_variance", "shape": [256]}, {"dtype": "float32", "name": "bn2a_branch2a/gamma", "shape": [64]}, {"dtype": "float32", "name": "bn2a_branch2a/beta", "shape": [64]}, {"dtype": "float32", "name": "bn2a_branch2a/moving_mean", "shape": [64]}, {"dtype": "float32", "name": "bn2a_branch2a/moving_variance", "shape": [64]}, {"dtype": "float32", "name": "bn2a_branch2b/gamma", "shape": [64]}, {"dtype": "float32", "name": "bn2a_branch2b/beta", "shape": [64]}, {"dtype": "float32", "name": "bn2a_branch2b/moving_mean", "shape": [64]}, {"dtype": "float32", "name": "bn2a_branch2b/moving_variance", "shape": [64]}, {"dtype": "float32", "name": "bn2a_branch2c/gamma", "shape": [256]}, {"dtype": "float32", "name": "bn2a_branch2c/beta", "shape": [256]}, {"dtype": "float32", "name": "bn2a_branch2c/moving_mean", "shape": [256]}, {"dtype": "float32", "name": "bn2a_branch2c/moving_variance", "shape": [256]}, {"dtype": "float32", "name": "bn2b_branch2a/gamma", "shape": [64]}, {"dtype": "float32", "name": "bn2b_branch2a/beta", "shape": [64]}, {"dtype": "float32", "name": "bn2b_branch2a/moving_mean", "shape": [64]}, {"dtype": "float32", "name": "bn2b_branch2a/moving_variance", "shape": [64]}, {"dtype": "float32", "name": "bn2b_branch2b/gamma", "shape": [64]}, {"dtype": "float32", "name": "bn2b_branch2b/beta", "shape": [64]}, {"dtype": "float32", "name": "bn2b_branch2b/moving_mean", "shape": [64]}, {"dtype": "float32", "name": "bn2b_branch2b/moving_variance", "shape": [64]}, {"dtype": "float32", "name": "bn2b_branch2c/gamma", "shape": [256]}, {"dtype": "float32", "name": "bn2b_branch2c/beta", "shape": [256]}, {"dtype": "float32", "name": "bn2b_branch2c/moving_mean", "shape": [256]}, {"dtype": "float32", "name": "bn2b_branch2c/moving_variance", "shape": [256]}, {"dtype": "float32", "name": "bn2c_branch2a/gamma", "shape": [64]}, {"dtype": "float32", "name": "bn2c_branch2a/beta", "shape": [64]}, {"dtype": "float32", "name": "bn2c_branch2a/moving_mean", "shape": [64]}, {"dtype": "float32", "name": "bn2c_branch2a/moving_variance", "shape": [64]}, {"dtype": "float32", "name": "bn2c_branch2b/gamma", "shape": [64]}, {"dtype": "float32", "name": "bn2c_branch2b/beta", "shape": [64]}, {"dtype": "float32", "name": "bn2c_branch2b/moving_mean", "shape": [64]}, {"dtype": "float32", "name": "bn2c_branch2b/moving_variance", "shape": [64]}, {"dtype": "float32", "name": "bn2c_branch2c/gamma", "shape": [256]}, {"dtype": "float32", "name": "bn2c_branch2c/beta", "shape": [256]}, {"dtype": "float32", "name": "bn2c_branch2c/moving_mean", "shape": [256]}, {"dtype": "float32", "name": "bn2c_branch2c/moving_variance", "shape": [256]}, {"dtype": "float32", "name": "bn3a_branch1/gamma", "shape": [512]}, {"dtype": "float32", "name": "bn3a_branch1/beta", "shape": [512]}, {"dtype": "float32", "name": "bn3a_branch1/moving_mean", "shape": [512]}, {"dtype": "float32", "name": "bn3a_branch1/moving_variance", "shape": [512]}, {"dtype": "float32", "name": "bn3a_branch2a/gamma", "shape": [128]}, {"dtype": "float32", "name": "bn3a_branch2a/beta", "shape": [128]}, {"dtype": "float32", "name": "bn3a_branch2a/moving_mean", "shape": [128]}, {"dtype": "float32", "name": "bn3a_branch2a/moving_variance", "shape": [128]}, {"dtype": "float32", "name": "bn3a_branch2b/gamma", "shape": [128]}, {"dtype": "float32", "name": "bn3a_branch2b/beta", "shape": [128]}, {"dtype": "float32", "name": "bn3a_branch2b/moving_mean", "shape": [128]}, {"dtype": "float32", "name": "bn3a_branch2b/moving_variance", "shape": [128]}, {"dtype": "float32", "name": "bn3a_branch2c/gamma", "shape": [512]}, {"dtype": "float32", "name": "bn3a_branch2c/beta", "shape": [512]}, {"dtype": "float32", "name": "bn3a_branch2c/moving_mean", "shape": [512]}, {"dtype": "float32", "name": "bn3a_branch2c/moving_variance", "shape": [512]}, {"dtype": "float32", "name": "bn3b_branch2a/gamma", "shape": [128]}, {"dtype": "float32", "name": "bn3b_branch2a/beta", "shape": [128]}, {"dtype": "float32", "name": "bn3b_branch2a/moving_mean", "shape": [128]}, {"dtype": "float32", "name": "bn3b_branch2a/moving_variance", "shape": [128]}, {"dtype": "float32", "name": "bn3b_branch2b/gamma", "shape": [128]}, {"dtype": "float32", "name": "bn3b_branch2b/beta", "shape": [128]}, {"dtype": "float32", "name": "bn3b_branch2b/moving_mean", "shape": [128]}, {"dtype": "float32", "name": "bn3b_branch2b/moving_variance", "shape": [128]}, {"dtype": "float32", "name": "bn3b_branch2c/gamma", "shape": [512]}, {"dtype": "float32", "name": "bn3b_branch2c/beta", "shape": [512]}, {"dtype": "float32", "name": "bn3b_branch2c/moving_mean", "shape": [512]}, {"dtype": "float32", "name": "bn3b_branch2c/moving_variance", "shape": [512]}, {"dtype": "float32", "name": "bn3c_branch2a/gamma", "shape": [128]}, {"dtype": "float32", "name": "bn3c_branch2a/beta", "shape": [128]}, {"dtype": "float32", "name": "bn3c_branch2a/moving_mean", "shape": [128]}, {"dtype": "float32", "name": "bn3c_branch2a/moving_variance", "shape": [128]}, {"dtype": "float32", "name": "bn3c_branch2b/gamma", "shape": [128]}, {"dtype": "float32", "name": "bn3c_branch2b/beta", "shape": [128]}, {"dtype": "float32", "name": "bn3c_branch2b/moving_mean", "shape": [128]}, {"dtype": "float32", "name": "bn3c_branch2b/moving_variance", "shape": [128]}, {"dtype": "float32", "name": "bn3c_branch2c/gamma", "shape": [512]}, {"dtype": "float32", "name": "bn3c_branch2c/beta", "shape": [512]}, {"dtype": "float32", "name": "bn3c_branch2c/moving_mean", "shape": [512]}, {"dtype": "float32", "name": "bn3c_branch2c/moving_variance", "shape": [512]}, {"dtype": "float32", "name": "bn3d_branch2a/gamma", "shape": [128]}, {"dtype": "float32", "name": "bn3d_branch2a/beta", "shape": [128]}, {"dtype": "float32", "name": "bn3d_branch2a/moving_mean", "shape": [128]}, {"dtype": "float32", "name": "bn3d_branch2a/moving_variance", "shape": [128]}, {"dtype": "float32", "name": "bn3d_branch2b/gamma", "shape": [128]}, {"dtype": "float32", "name": "bn3d_branch2b/beta", "shape": [128]}, {"dtype": "float32", "name": "bn3d_branch2b/moving_mean", "shape": [128]}, {"dtype": "float32", "name": "bn3d_branch2b/moving_variance", "shape": [128]}, {"dtype": "float32", "name": "bn3d_branch2c/gamma", "shape": [512]}, {"dtype": "float32", "name": "bn3d_branch2c/beta", "shape": [512]}, {"dtype": "float32", "name": "bn3d_branch2c/moving_mean", "shape": [512]}, {"dtype": "float32", "name": "bn3d_branch2c/moving_variance", "shape": [512]}, {"dtype": "float32", "name": "bn4a_branch1/gamma", "shape": [1024]}, {"dtype": "float32", "name": "bn4a_branch1/beta", "shape": [1024]}, {"dtype": "float32", "name": "bn4a_branch1/moving_mean", "shape": [1024]}, {"dtype": "float32", "name": "bn4a_branch1/moving_variance", "shape": [1024]}, {"dtype": "float32", "name": "bn4a_branch2a/gamma", "shape": [256]}, {"dtype": "float32", "name": "bn4a_branch2a/beta", "shape": [256]}, {"dtype": "float32", "name": "bn4a_branch2a/moving_mean", "shape": [256]}, {"dtype": "float32", "name": "bn4a_branch2a/moving_variance", "shape": [256]}, {"dtype": "float32", "name": "bn4a_branch2b/gamma", "shape": [256]}, {"dtype": "float32", "name": "bn4a_branch2b/beta", "shape": [256]}, {"dtype": "float32", "name": "bn4a_branch2b/moving_mean", "shape": [256]}, {"dtype": "float32", "name": "bn4a_branch2b/moving_variance", "shape": [256]}, {"dtype": "float32", "name": "bn4a_branch2c/gamma", "shape": [1024]}, {"dtype": "float32", "name": "bn4a_branch2c/beta", "shape": [1024]}, {"dtype": "float32", "name": "bn4a_branch2c/moving_mean", "shape": [1024]}, {"dtype": "float32", "name": "bn4a_branch2c/moving_variance", "shape": [1024]}, {"dtype": "float32", "name": "bn4b_branch2a/gamma", "shape": [256]}, {"dtype": "float32", "name": "bn4b_branch2a/beta", "shape": [256]}, {"dtype": "float32", "name": "bn4b_branch2a/moving_mean", "shape": [256]}, {"dtype": "float32", "name": "bn4b_branch2a/moving_variance", "shape": [256]}, {"dtype": "float32", "name": "bn4b_branch2b/gamma", "shape": [256]}, {"dtype": "float32", "name": "bn4b_branch2b/beta", "shape": [256]}, {"dtype": "float32", "name": "bn4b_branch2b/moving_mean", "shape": [256]}, {"dtype": "float32", "name": "bn4b_branch2b/moving_variance", "shape": [256]}, {"dtype": "float32", "name": "bn4b_branch2c/gamma", "shape": [1024]}, {"dtype": "float32", "name": "bn4b_branch2c/beta", "shape": [1024]}, {"dtype": "float32", "name": "bn4b_branch2c/moving_mean", "shape": [1024]}, {"dtype": "float32", "name": "bn4b_branch2c/moving_variance", "shape": [1024]}, {"dtype": "float32", "name": "bn4c_branch2a/gamma", "shape": [256]}, {"dtype": "float32", "name": "bn4c_branch2a/beta", "shape": [256]}, {"dtype": "float32", "name": "bn4c_branch2a/moving_mean", "shape": [256]}, {"dtype": "float32", "name": "bn4c_branch2a/moving_variance", "shape": [256]}, {"dtype": "float32", "name": "bn4c_branch2b/gamma", "shape": [256]}, {"dtype": "float32", "name": "bn4c_branch2b/beta", "shape": [256]}, {"dtype": "float32", "name": "bn4c_branch2b/moving_mean", "shape": [256]}, {"dtype": "float32", "name": "bn4c_branch2b/moving_variance", "shape": [256]}, {"dtype": "float32", "name": "bn4c_branch2c/gamma", "shape": [1024]}, {"dtype": "float32", "name": "bn4c_branch2c/beta", "shape": [1024]}, {"dtype": "float32", "name": "bn4c_branch2c/moving_mean", "shape": [1024]}, {"dtype": "float32", "name": "bn4c_branch2c/moving_variance", "shape": [1024]}, {"dtype": "float32", "name": "bn4d_branch2a/gamma", "shape": [256]}, {"dtype": "float32", "name": "bn4d_branch2a/beta", "shape": [256]}, {"dtype": "float32", "name": "bn4d_branch2a/moving_mean", "shape": [256]}, {"dtype": "float32", "name": "bn4d_branch2a/moving_variance", "shape": [256]}, {"dtype": "float32", "name": "bn4d_branch2b/gamma", "shape": [256]}, {"dtype": "float32", "name": "bn4d_branch2b/beta", "shape": [256]}, {"dtype": "float32", "name": "bn4d_branch2b/moving_mean", "shape": [256]}, {"dtype": "float32", "name": "bn4d_branch2b/moving_variance", "shape": [256]}, {"dtype": "float32", "name": "bn4d_branch2c/gamma", "shape": [1024]}, {"dtype": "float32", "name": "bn4d_branch2c/beta", "shape": [1024]}, {"dtype": "float32", "name": "bn4d_branch2c/moving_mean", "shape": [1024]}, {"dtype": "float32", "name": "bn4d_branch2c/moving_variance", "shape": [1024]}, {"dtype": "float32", "name": "bn4e_branch2a/gamma", "shape": [256]}, {"dtype": "float32", "name": "bn4e_branch2a/beta", "shape": [256]}, {"dtype": "float32", "name": "bn4e_branch2a/moving_mean", "shape": [256]}, {"dtype": "float32", "name": "bn4e_branch2a/moving_variance", "shape": [256]}, {"dtype": "float32", "name": "bn4e_branch2b/gamma", "shape": [256]}, {"dtype": "float32", "name": "bn4e_branch2b/beta", "shape": [256]}, {"dtype": "float32", "name": "bn4e_branch2b/moving_mean", "shape": [256]}, {"dtype": "float32", "name": "bn4e_branch2b/moving_variance", "shape": [256]}, {"dtype": "float32", "name": "bn4e_branch2c/gamma", "shape": [1024]}, {"dtype": "float32", "name": "bn4e_branch2c/beta", "shape": [1024]}, {"dtype": "float32", "name": "bn4e_branch2c/moving_mean", "shape": [1024]}, {"dtype": "float32", "name": "bn4e_branch2c/moving_variance", "shape": [1024]}, {"dtype": "float32", "name": "bn4f_branch2a/gamma", "shape": [256]}, {"dtype": "float32", "name": "bn4f_branch2a/beta", "shape": [256]}, {"dtype": "float32", "name": "bn4f_branch2a/moving_mean", "shape": [256]}, {"dtype": "float32", "name": "bn4f_branch2a/moving_variance", "shape": [256]}, {"dtype": "float32", "name": "bn4f_branch2b/gamma", "shape": [256]}, {"dtype": "float32", "name": "bn4f_branch2b/beta", "shape": [256]}, {"dtype": "float32", "name": "bn4f_branch2b/moving_mean", "shape": [256]}, {"dtype": "float32", "name": "bn4f_branch2b/moving_variance", "shape": [256]}, {"dtype": "float32", "name": "bn4f_branch2c/gamma", "shape": [1024]}, {"dtype": "float32", "name": "bn4f_branch2c/beta", "shape": [1024]}, {"dtype": "float32", "name": "bn4f_branch2c/moving_mean", "shape": [1024]}, {"dtype": "float32", "name": "bn4f_branch2c/moving_variance", "shape": [1024]}, {"dtype": "float32", "name": "bn5a_branch1/gamma", "shape": [2048]}, {"dtype": "float32", "name": "bn5a_branch1/beta", "shape": [2048]}, {"dtype": "float32", "name": "bn5a_branch1/moving_mean", "shape": [2048]}, {"dtype": "float32", "name": "bn5a_branch1/moving_variance", "shape": [2048]}, {"dtype": "float32", "name": "bn5a_branch2a/gamma", "shape": [512]}, {"dtype": "float32", "name": "bn5a_branch2a/beta", "shape": [512]}, {"dtype": "float32", "name": "bn5a_branch2a/moving_mean", "shape": [512]}, {"dtype": "float32", "name": "bn5a_branch2a/moving_variance", "shape": [512]}, {"dtype": "float32", "name": "bn5a_branch2b/gamma", "shape": [512]}, {"dtype": "float32", "name": "bn5a_branch2b/beta", "shape": [512]}, {"dtype": "float32", "name": "bn5a_branch2b/moving_mean", "shape": [512]}, {"dtype": "float32", "name": "bn5a_branch2b/moving_variance", "shape": [512]}, {"dtype": "float32", "name": "bn5a_branch2c/gamma", "shape": [2048]}, {"dtype": "float32", "name": "bn5a_branch2c/beta", "shape": [2048]}, {"dtype": "float32", "name": "bn5a_branch2c/moving_mean", "shape": [2048]}, {"dtype": "float32", "name": "bn5a_branch2c/moving_variance", "shape": [2048]}, {"dtype": "float32", "name": "bn5b_branch2a/gamma", "shape": [512]}, {"dtype": "float32", "name": "bn5b_branch2a/beta", "shape": [512]}, {"dtype": "float32", "name": "bn5b_branch2a/moving_mean", "shape": [512]}, {"dtype": "float32", "name": "bn5b_branch2a/moving_variance", "shape": [512]}, {"dtype": "float32", "name": "bn5b_branch2b/gamma", "shape": [512]}, {"dtype": "float32", "name": "bn5b_branch2b/beta", "shape": [512]}, {"dtype": "float32", "name": "bn5b_branch2b/moving_mean", "shape": [512]}, {"dtype": "float32", "name": "bn5b_branch2b/moving_variance", "shape": [512]}, {"dtype": "float32", "name": "bn5b_branch2c/gamma", "shape": [2048]}, {"dtype": "float32", "name": "bn5b_branch2c/beta", "shape": [2048]}, {"dtype": "float32", "name": "bn5b_branch2c/moving_mean", "shape": [2048]}, {"dtype": "float32", "name": "bn5b_branch2c/moving_variance", "shape": [2048]}, {"dtype": "float32", "name": "bn5c_branch2a/gamma", "shape": [512]}, {"dtype": "float32", "name": "bn5c_branch2a/beta", "shape": [512]}, {"dtype": "float32", "name": "bn5c_branch2a/moving_mean", "shape": [512]}, {"dtype": "float32", "name": "bn5c_branch2a/moving_variance", "shape": [512]}, {"dtype": "float32", "name": "bn5c_branch2b/gamma", "shape": [512]}, {"dtype": "float32", "name": "bn5c_branch2b/beta", "shape": [512]}, {"dtype": "float32", "name": "bn5c_branch2b/moving_mean", "shape": [512]}, {"dtype": "float32", "name": "bn5c_branch2b/moving_variance", "shape": [512]}, {"dtype": "float32", "name": "bn5c_branch2c/gamma", "shape": [2048]}, {"dtype": "float32", "name": "bn5c_branch2c/beta", "shape": [2048]}, {"dtype": "float32", "name": "bn5c_branch2c/moving_mean", "shape": [2048]}, {"dtype": "float32", "name": "bn5c_branch2c/moving_variance", "shape": [2048]}, {"dtype": "float32", "name": "bn_conv1/gamma", "shape": [64]}, {"dtype": "float32", "name": "bn_conv1/beta", "shape": [64]}, {"dtype": "float32", "name": "bn_conv1/moving_mean", "shape": [64]}, {"dtype": "float32", "name": "bn_conv1/moving_variance", "shape": [64]}, {"dtype": "float32", "name": "conv1/kernel", "shape": [7, 7, 3, 64]}, {"dtype": "float32", "name": "conv1/bias", "shape": [64]}, {"dtype": "float32", "name": "dense_1/kernel", "shape": [2048, 512]}, {"dtype": "float32", "name": "dense_1/bias", "shape": [512]}, {"dtype": "float32", "name": "dense_2/kernel", "shape": [512, 128]}, {"dtype": "float32", "name": "dense_2/bias", "shape": [128]}, {"dtype": "float32", "name": "dense_3/kernel", "shape": [128, 2]}, {"dtype": "float32", "name": "dense_3/bias", "shape": [2]}, {"dtype": "float32", "name": "res2a_branch1/kernel", "shape": [1, 1, 64, 256]}, {"dtype": "float32", "name": "res2a_branch1/bias", "shape": [256]}, {"dtype": "float32", "name": "res2a_branch2a/kernel", "shape": [1, 1, 64, 64]}, {"dtype": "float32", "name": "res2a_branch2a/bias", "shape": [64]}, {"dtype": "float32", "name": "res2a_branch2b/kernel", "shape": [3, 3, 64, 64]}, {"dtype": "float32", "name": "res2a_branch2b/bias", "shape": [64]}, {"dtype": "float32", "name": "res2a_branch2c/kernel", "shape": [1, 1, 64, 256]}, {"dtype": "float32", "name": "res2a_branch2c/bias", "shape": [256]}, {"dtype": "float32", "name": "res2b_branch2a/kernel", "shape": [1, 1, 256, 64]}, {"dtype": "float32", "name": "res2b_branch2a/bias", "shape": [64]}, {"dtype": "float32", "name": "res2b_branch2b/kernel", "shape": [3, 3, 64, 64]}, {"dtype": "float32", "name": "res2b_branch2b/bias", "shape": [64]}, {"dtype": "float32", "name": "res2b_branch2c/kernel", "shape": [1, 1, 64, 256]}, {"dtype": "float32", "name": "res2b_branch2c/bias", "shape": [256]}, {"dtype": "float32", "name": "res2c_branch2a/kernel", "shape": [1, 1, 256, 64]}, {"dtype": "float32", "name": "res2c_branch2a/bias", "shape": [64]}, {"dtype": "float32", "name": "res2c_branch2b/kernel", "shape": [3, 3, 64, 64]}, {"dtype": "float32", "name": "res2c_branch2b/bias", "shape": [64]}, {"dtype": "float32", "name": "res2c_branch2c/kernel", "shape": [1, 1, 64, 256]}, {"dtype": "float32", "name": "res2c_branch2c/bias", "shape": [256]}, {"dtype": "float32", "name": "res3a_branch1/kernel", "shape": [1, 1, 256, 512]}, {"dtype": "float32", "name": "res3a_branch1/bias", "shape": [512]}, {"dtype": "float32", "name": "res3a_branch2a/kernel", "shape": [1, 1, 256, 128]}, {"dtype": "float32", "name": "res3a_branch2a/bias", "shape": [128]}, {"dtype": "float32", "name": "res3a_branch2b/kernel", "shape": [3, 3, 128, 128]}, {"dtype": "float32", "name": "res3a_branch2b/bias", "shape": [128]}, {"dtype": "float32", "name": "res3a_branch2c/kernel", "shape": [1, 1, 128, 512]}, {"dtype": "float32", "name": "res3a_branch2c/bias", "shape": [512]}, {"dtype": "float32", "name": "res3b_branch2a/kernel", "shape": [1, 1, 512, 128]}, {"dtype": "float32", "name": "res3b_branch2a/bias", "shape": [128]}, {"dtype": "float32", "name": "res3b_branch2b/kernel", "shape": [3, 3, 128, 128]}, {"dtype": "float32", "name": "res3b_branch2b/bias", "shape": [128]}, {"dtype": "float32", "name": "res3b_branch2c/kernel", "shape": [1, 1, 128, 512]}, {"dtype": "float32", "name": "res3b_branch2c/bias", "shape": [512]}, {"dtype": "float32", "name": "res3c_branch2a/kernel", "shape": [1, 1, 512, 128]}, {"dtype": "float32", "name": "res3c_branch2a/bias", "shape": [128]}, {"dtype": "float32", "name": "res3c_branch2b/kernel", "shape": [3, 3, 128, 128]}, {"dtype": "float32", "name": "res3c_branch2b/bias", "shape": [128]}, {"dtype": "float32", "name": "res3c_branch2c/kernel", "shape": [1, 1, 128, 512]}, {"dtype": "float32", "name": "res3c_branch2c/bias", "shape": [512]}, {"dtype": "float32", "name": "res3d_branch2a/kernel", "shape": [1, 1, 512, 128]}, {"dtype": "float32", "name": "res3d_branch2a/bias", "shape": [128]}, {"dtype": "float32", "name": "res3d_branch2b/kernel", "shape": [3, 3, 128, 128]}, {"dtype": "float32", "name": "res3d_branch2b/bias", "shape": [128]}, {"dtype": "float32", "name": "res3d_branch2c/kernel", "shape": [1, 1, 128, 512]}, {"dtype": "float32", "name": "res3d_branch2c/bias", "shape": [512]}, {"dtype": "float32", "name": "res4a_branch1/kernel", "shape": [1, 1, 512, 1024]}, {"dtype": "float32", "name": "res4a_branch1/bias", "shape": [1024]}, {"dtype": "float32", "name": "res4a_branch2a/kernel", "shape": [1, 1, 512, 256]}, {"dtype": "float32", "name": "res4a_branch2a/bias", "shape": [256]}, {"dtype": "float32", "name": "res4a_branch2b/kernel", "shape": [3, 3, 256, 256]}, {"dtype": "float32", "name": "res4a_branch2b/bias", "shape": [256]}, {"dtype": "float32", "name": "res4a_branch2c/kernel", "shape": [1, 1, 256, 1024]}, {"dtype": "float32", "name": "res4a_branch2c/bias", "shape": [1024]}, {"dtype": "float32", "name": "res4b_branch2a/kernel", "shape": [1, 1, 1024, 256]}, {"dtype": "float32", "name": "res4b_branch2a/bias", "shape": [256]}, {"dtype": "float32", "name": "res4b_branch2b/kernel", "shape": [3, 3, 256, 256]}, {"dtype": "float32", "name": "res4b_branch2b/bias", "shape": [256]}, {"dtype": "float32", "name": "res4b_branch2c/kernel", "shape": [1, 1, 256, 1024]}, {"dtype": "float32", "name": "res4b_branch2c/bias", "shape": [1024]}, {"dtype": "float32", "name": "res4c_branch2a/kernel", "shape": [1, 1, 1024, 256]}, {"dtype": "float32", "name": "res4c_branch2a/bias", "shape": [256]}, {"dtype": "float32", "name": "res4c_branch2b/kernel", "shape": [3, 3, 256, 256]}, {"dtype": "float32", "name": "res4c_branch2b/bias", "shape": [256]}, {"dtype": "float32", "name": "res4c_branch2c/kernel", "shape": [1, 1, 256, 1024]}, {"dtype": "float32", "name": "res4c_branch2c/bias", "shape": [1024]}, {"dtype": "float32", "name": "res4d_branch2a/kernel", "shape": [1, 1, 1024, 256]}, {"dtype": "float32", "name": "res4d_branch2a/bias", "shape": [256]}, {"dtype": "float32", "name": "res4d_branch2b/kernel", "shape": [3, 3, 256, 256]}, {"dtype": "float32", "name": "res4d_branch2b/bias", "shape": [256]}, {"dtype": "float32", "name": "res4d_branch2c/kernel", "shape": [1, 1, 256, 1024]}, {"dtype": "float32", "name": "res4d_branch2c/bias", "shape": [1024]}, {"dtype": "float32", "name": "res4e_branch2a/kernel", "shape": [1, 1, 1024, 256]}, {"dtype": "float32", "name": "res4e_branch2a/bias", "shape": [256]}, {"dtype": "float32", "name": "res4e_branch2b/kernel", "shape": [3, 3, 256, 256]}, {"dtype": "float32", "name": "res4e_branch2b/bias", "shape": [256]}, {"dtype": "float32", "name": "res4e_branch2c/kernel", "shape": [1, 1, 256, 1024]}, {"dtype": "float32", "name": "res4e_branch2c/bias", "shape": [1024]}, {"dtype": "float32", "name": "res4f_branch2a/kernel", "shape": [1, 1, 1024, 256]}, {"dtype": "float32", "name": "res4f_branch2a/bias", "shape": [256]}, {"dtype": "float32", "name": "res4f_branch2b/kernel", "shape": [3, 3, 256, 256]}, {"dtype": "float32", "name": "res4f_branch2b/bias", "shape": [256]}, {"dtype": "float32", "name": "res4f_branch2c/kernel", "shape": [1, 1, 256, 1024]}, {"dtype": "float32", "name": "res4f_branch2c/bias", "shape": [1024]}, {"dtype": "float32", "name": "res5a_branch1/kernel", "shape": [1, 1, 1024, 2048]}, {"dtype": "float32", "name": "res5a_branch1/bias", "shape": [2048]}, {"dtype": "float32", "name": "res5a_branch2a/kernel", "shape": [1, 1, 1024, 512]}, {"dtype": "float32", "name": "res5a_branch2a/bias", "shape": [512]}, {"dtype": "float32", "name": "res5a_branch2b/kernel", "shape": [3, 3, 512, 512]}, {"dtype": "float32", "name": "res5a_branch2b/bias", "shape": [512]}, {"dtype": "float32", "name": "res5a_branch2c/kernel", "shape": [1, 1, 512, 2048]}, {"dtype": "float32", "name": "res5a_branch2c/bias", "shape": [2048]}, {"dtype": "float32", "name": "res5b_branch2a/kernel", "shape": [1, 1, 2048, 512]}, {"dtype": "float32", "name": "res5b_branch2a/bias", "shape": [512]}, {"dtype": "float32", "name": "res5b_branch2b/kernel", "shape": [3, 3, 512, 512]}, {"dtype": "float32", "name": "res5b_branch2b/bias", "shape": [512]}, {"dtype": "float32", "name": "res5b_branch2c/kernel", "shape": [1, 1, 512, 2048]}, {"dtype": "float32", "name": "res5b_branch2c/bias", "shape": [2048]}, {"dtype": "float32", "name": "res5c_branch2a/kernel", "shape": [1, 1, 2048, 512]}, {"dtype": "float32", "name": "res5c_branch2a/bias", "shape": [512]}, {"dtype": "float32", "name": "res5c_branch2b/kernel", "shape": [3, 3, 512, 512]}, {"dtype": "float32", "name": "res5c_branch2b/bias", "shape": [512]}, {"dtype": "float32", "name": "res5c_branch2c/kernel", "shape": [1, 1, 512, 2048]}, {"dtype": "float32", "name": "res5c_branch2c/bias", "shape": [2048]}]}]}