{"weightsManifest": [{"weights": [{"dtype": "float32", "shape": [512], "name": "batch_normalization_1/gamma"}, {"dtype": "float32", "shape": [512], "name": "batch_normalization_1/beta"}, {"dtype": "float32", "shape": [512], "name": "batch_normalization_1/moving_mean"}, {"dtype": "float32", "shape": [512], "name": "batch_normalization_1/moving_variance"}, {"dtype": "float32", "shape": [128], "name": "batch_normalization_2/gamma"}, {"dtype": "float32", "shape": [128], "name": "batch_normalization_2/beta"}, {"dtype": "float32", "shape": [128], "name": "batch_normalization_2/moving_mean"}, {"dtype": "float32", "shape": [128], "name": "batch_normalization_2/moving_variance"}, {"dtype": "float32", "shape": [256], "name": "bn2a_branch1/gamma"}, {"dtype": "float32", "shape": [256], "name": "bn2a_branch1/beta"}, {"dtype": "float32", "shape": [256], "name": "bn2a_branch1/moving_mean"}, {"dtype": "float32", "shape": [256], "name": "bn2a_branch1/moving_variance"}, {"dtype": "float32", "shape": [64], "name": "bn2a_branch2a/gamma"}, {"dtype": "float32", "shape": [64], "name": "bn2a_branch2a/beta"}, {"dtype": "float32", "shape": [64], "name": "bn2a_branch2a/moving_mean"}, {"dtype": "float32", "shape": [64], "name": "bn2a_branch2a/moving_variance"}, {"dtype": "float32", "shape": [64], "name": "bn2a_branch2b/gamma"}, {"dtype": "float32", "shape": [64], "name": "bn2a_branch2b/beta"}, {"dtype": "float32", "shape": [64], "name": "bn2a_branch2b/moving_mean"}, {"dtype": "float32", "shape": [64], "name": "bn2a_branch2b/moving_variance"}, {"dtype": "float32", "shape": [256], "name": "bn2a_branch2c/gamma"}, {"dtype": "float32", "shape": [256], "name": "bn2a_branch2c/beta"}, {"dtype": "float32", "shape": [256], "name": "bn2a_branch2c/moving_mean"}, {"dtype": "float32", "shape": [256], "name": "bn2a_branch2c/moving_variance"}, {"dtype": "float32", "shape": [64], "name": "bn2b_branch2a/gamma"}, {"dtype": "float32", "shape": [64], "name": "bn2b_branch2a/beta"}, {"dtype": "float32", "shape": [64], "name": "bn2b_branch2a/moving_mean"}, {"dtype": "float32", "shape": [64], "name": "bn2b_branch2a/moving_variance"}, {"dtype": "float32", "shape": [64], "name": "bn2b_branch2b/gamma"}, {"dtype": "float32", "shape": [64], "name": "bn2b_branch2b/beta"}, {"dtype": "float32", "shape": [64], "name": "bn2b_branch2b/moving_mean"}, {"dtype": "float32", "shape": [64], "name": "bn2b_branch2b/moving_variance"}, {"dtype": "float32", "shape": [256], "name": "bn2b_branch2c/gamma"}, {"dtype": "float32", "shape": [256], "name": "bn2b_branch2c/beta"}, {"dtype": "float32", "shape": [256], "name": "bn2b_branch2c/moving_mean"}, {"dtype": "float32", "shape": [256], "name": "bn2b_branch2c/moving_variance"}, {"dtype": "float32", "shape": [64], "name": "bn2c_branch2a/gamma"}, {"dtype": "float32", "shape": [64], "name": "bn2c_branch2a/beta"}, {"dtype": "float32", "shape": [64], "name": "bn2c_branch2a/moving_mean"}, {"dtype": "float32", "shape": [64], "name": "bn2c_branch2a/moving_variance"}, {"dtype": "float32", "shape": [64], "name": "bn2c_branch2b/gamma"}, {"dtype": "float32", "shape": [64], "name": "bn2c_branch2b/beta"}, {"dtype": "float32", "shape": [64], "name": "bn2c_branch2b/moving_mean"}, {"dtype": "float32", "shape": [64], "name": "bn2c_branch2b/moving_variance"}, {"dtype": "float32", "shape": [256], "name": "bn2c_branch2c/gamma"}, {"dtype": "float32", "shape": [256], "name": "bn2c_branch2c/beta"}, {"dtype": "float32", "shape": [256], "name": "bn2c_branch2c/moving_mean"}, {"dtype": "float32", "shape": [256], "name": "bn2c_branch2c/moving_variance"}, {"dtype": "float32", "shape": [512], "name": "bn3a_branch1/gamma"}, {"dtype": "float32", "shape": [512], "name": "bn3a_branch1/beta"}, {"dtype": "float32", "shape": [512], "name": "bn3a_branch1/moving_mean"}, {"dtype": "float32", "shape": [512], "name": "bn3a_branch1/moving_variance"}, {"dtype": "float32", "shape": [128], "name": "bn3a_branch2a/gamma"}, {"dtype": "float32", "shape": [128], "name": "bn3a_branch2a/beta"}, {"dtype": "float32", "shape": [128], "name": "bn3a_branch2a/moving_mean"}, {"dtype": "float32", "shape": [128], "name": "bn3a_branch2a/moving_variance"}, {"dtype": "float32", "shape": [128], "name": "bn3a_branch2b/gamma"}, {"dtype": "float32", "shape": [128], "name": "bn3a_branch2b/beta"}, {"dtype": "float32", "shape": [128], "name": "bn3a_branch2b/moving_mean"}, {"dtype": "float32", "shape": [128], "name": "bn3a_branch2b/moving_variance"}, {"dtype": "float32", "shape": [512], "name": "bn3a_branch2c/gamma"}, {"dtype": "float32", "shape": [512], "name": "bn3a_branch2c/beta"}, {"dtype": "float32", "shape": [512], "name": "bn3a_branch2c/moving_mean"}, {"dtype": "float32", "shape": [512], "name": "bn3a_branch2c/moving_variance"}, {"dtype": "float32", "shape": [128], "name": "bn3b_branch2a/gamma"}, {"dtype": "float32", "shape": [128], "name": "bn3b_branch2a/beta"}, {"dtype": "float32", "shape": [128], "name": "bn3b_branch2a/moving_mean"}, {"dtype": "float32", "shape": [128], "name": "bn3b_branch2a/moving_variance"}, {"dtype": "float32", "shape": [128], "name": "bn3b_branch2b/gamma"}, {"dtype": "float32", "shape": [128], "name": "bn3b_branch2b/beta"}, {"dtype": "float32", "shape": [128], "name": "bn3b_branch2b/moving_mean"}, {"dtype": "float32", "shape": [128], "name": "bn3b_branch2b/moving_variance"}, {"dtype": "float32", "shape": [512], "name": "bn3b_branch2c/gamma"}, {"dtype": "float32", "shape": [512], "name": "bn3b_branch2c/beta"}, {"dtype": "float32", "shape": [512], "name": "bn3b_branch2c/moving_mean"}, {"dtype": "float32", "shape": [512], "name": "bn3b_branch2c/moving_variance"}, {"dtype": "float32", "shape": [128], "name": "bn3c_branch2a/gamma"}, {"dtype": "float32", "shape": [128], "name": "bn3c_branch2a/beta"}, {"dtype": "float32", "shape": [128], "name": "bn3c_branch2a/moving_mean"}, {"dtype": "float32", "shape": [128], "name": "bn3c_branch2a/moving_variance"}, {"dtype": "float32", "shape": [128], "name": "bn3c_branch2b/gamma"}, {"dtype": "float32", "shape": [128], "name": "bn3c_branch2b/beta"}, {"dtype": "float32", "shape": [128], "name": "bn3c_branch2b/moving_mean"}, {"dtype": "float32", "shape": [128], "name": "bn3c_branch2b/moving_variance"}, {"dtype": "float32", "shape": [512], "name": "bn3c_branch2c/gamma"}, {"dtype": "float32", "shape": [512], "name": "bn3c_branch2c/beta"}, {"dtype": "float32", "shape": [512], "name": "bn3c_branch2c/moving_mean"}, {"dtype": "float32", "shape": [512], "name": "bn3c_branch2c/moving_variance"}, {"dtype": "float32", "shape": [128], "name": "bn3d_branch2a/gamma"}, {"dtype": "float32", "shape": [128], "name": "bn3d_branch2a/beta"}, {"dtype": "float32", "shape": [128], "name": "bn3d_branch2a/moving_mean"}, {"dtype": "float32", "shape": [128], "name": "bn3d_branch2a/moving_variance"}, {"dtype": "float32", "shape": [128], "name": "bn3d_branch2b/gamma"}, {"dtype": "float32", "shape": [128], "name": "bn3d_branch2b/beta"}, {"dtype": "float32", "shape": [128], "name": "bn3d_branch2b/moving_mean"}, {"dtype": "float32", "shape": [128], "name": "bn3d_branch2b/moving_variance"}, {"dtype": "float32", "shape": [512], "name": "bn3d_branch2c/gamma"}, {"dtype": "float32", "shape": [512], "name": "bn3d_branch2c/beta"}, {"dtype": "float32", "shape": [512], "name": "bn3d_branch2c/moving_mean"}, {"dtype": "float32", "shape": [512], "name": "bn3d_branch2c/moving_variance"}, {"dtype": "float32", "shape": [1024], "name": "bn4a_branch1/gamma"}, {"dtype": "float32", "shape": [1024], "name": "bn4a_branch1/beta"}, {"dtype": "float32", "shape": [1024], "name": "bn4a_branch1/moving_mean"}, {"dtype": "float32", "shape": [1024], "name": "bn4a_branch1/moving_variance"}, {"dtype": "float32", "shape": [256], "name": "bn4a_branch2a/gamma"}, {"dtype": "float32", "shape": [256], "name": "bn4a_branch2a/beta"}, {"dtype": "float32", "shape": [256], "name": "bn4a_branch2a/moving_mean"}, {"dtype": "float32", "shape": [256], "name": "bn4a_branch2a/moving_variance"}, {"dtype": "float32", "shape": [256], "name": "bn4a_branch2b/gamma"}, {"dtype": "float32", "shape": [256], "name": "bn4a_branch2b/beta"}, {"dtype": "float32", "shape": [256], "name": "bn4a_branch2b/moving_mean"}, {"dtype": "float32", "shape": [256], "name": "bn4a_branch2b/moving_variance"}, {"dtype": "float32", "shape": [1024], "name": "bn4a_branch2c/gamma"}, {"dtype": "float32", "shape": [1024], "name": "bn4a_branch2c/beta"}, {"dtype": "float32", "shape": [1024], "name": "bn4a_branch2c/moving_mean"}, {"dtype": "float32", "shape": [1024], "name": "bn4a_branch2c/moving_variance"}, {"dtype": "float32", "shape": [256], "name": "bn4b_branch2a/gamma"}, {"dtype": "float32", "shape": [256], "name": "bn4b_branch2a/beta"}, {"dtype": "float32", "shape": [256], "name": "bn4b_branch2a/moving_mean"}, {"dtype": "float32", "shape": [256], "name": "bn4b_branch2a/moving_variance"}, {"dtype": "float32", "shape": [256], "name": "bn4b_branch2b/gamma"}, {"dtype": "float32", "shape": [256], "name": "bn4b_branch2b/beta"}, {"dtype": "float32", "shape": [256], "name": "bn4b_branch2b/moving_mean"}, {"dtype": "float32", "shape": [256], "name": "bn4b_branch2b/moving_variance"}, {"dtype": "float32", "shape": [1024], "name": "bn4b_branch2c/gamma"}, {"dtype": "float32", "shape": [1024], "name": "bn4b_branch2c/beta"}, {"dtype": "float32", "shape": [1024], "name": "bn4b_branch2c/moving_mean"}, {"dtype": "float32", "shape": [1024], "name": "bn4b_branch2c/moving_variance"}, {"dtype": "float32", "shape": [256], "name": "bn4c_branch2a/gamma"}, {"dtype": "float32", "shape": [256], "name": "bn4c_branch2a/beta"}, {"dtype": "float32", "shape": [256], "name": "bn4c_branch2a/moving_mean"}, {"dtype": "float32", "shape": [256], "name": "bn4c_branch2a/moving_variance"}, {"dtype": "float32", "shape": [256], "name": "bn4c_branch2b/gamma"}, {"dtype": "float32", "shape": [256], "name": "bn4c_branch2b/beta"}, {"dtype": "float32", "shape": [256], "name": "bn4c_branch2b/moving_mean"}, {"dtype": "float32", "shape": [256], "name": "bn4c_branch2b/moving_variance"}, {"dtype": "float32", "shape": [1024], "name": "bn4c_branch2c/gamma"}, {"dtype": "float32", "shape": [1024], "name": "bn4c_branch2c/beta"}, {"dtype": "float32", "shape": [1024], "name": "bn4c_branch2c/moving_mean"}, {"dtype": "float32", "shape": [1024], "name": "bn4c_branch2c/moving_variance"}, {"dtype": "float32", "shape": [256], "name": "bn4d_branch2a/gamma"}, {"dtype": "float32", "shape": [256], "name": "bn4d_branch2a/beta"}, {"dtype": "float32", "shape": [256], "name": "bn4d_branch2a/moving_mean"}, {"dtype": "float32", "shape": [256], "name": "bn4d_branch2a/moving_variance"}, {"dtype": "float32", "shape": [256], "name": "bn4d_branch2b/gamma"}, {"dtype": "float32", "shape": [256], "name": "bn4d_branch2b/beta"}, {"dtype": "float32", "shape": [256], "name": "bn4d_branch2b/moving_mean"}, {"dtype": "float32", "shape": [256], "name": "bn4d_branch2b/moving_variance"}, {"dtype": "float32", "shape": [1024], "name": "bn4d_branch2c/gamma"}, {"dtype": "float32", "shape": [1024], "name": "bn4d_branch2c/beta"}, {"dtype": "float32", "shape": [1024], "name": "bn4d_branch2c/moving_mean"}, {"dtype": "float32", "shape": [1024], "name": "bn4d_branch2c/moving_variance"}, {"dtype": "float32", "shape": [256], "name": "bn4e_branch2a/gamma"}, {"dtype": "float32", "shape": [256], "name": "bn4e_branch2a/beta"}, {"dtype": "float32", "shape": [256], "name": "bn4e_branch2a/moving_mean"}, {"dtype": "float32", "shape": [256], "name": "bn4e_branch2a/moving_variance"}, {"dtype": "float32", "shape": [256], "name": "bn4e_branch2b/gamma"}, {"dtype": "float32", "shape": [256], "name": "bn4e_branch2b/beta"}, {"dtype": "float32", "shape": [256], "name": "bn4e_branch2b/moving_mean"}, {"dtype": "float32", "shape": [256], "name": "bn4e_branch2b/moving_variance"}, {"dtype": "float32", "shape": [1024], "name": "bn4e_branch2c/gamma"}, {"dtype": "float32", "shape": [1024], "name": "bn4e_branch2c/beta"}, {"dtype": "float32", "shape": [1024], "name": "bn4e_branch2c/moving_mean"}, {"dtype": "float32", "shape": [1024], "name": "bn4e_branch2c/moving_variance"}, {"dtype": "float32", "shape": [256], "name": "bn4f_branch2a/gamma"}, {"dtype": "float32", "shape": [256], "name": "bn4f_branch2a/beta"}, {"dtype": "float32", "shape": [256], "name": "bn4f_branch2a/moving_mean"}, {"dtype": "float32", "shape": [256], "name": "bn4f_branch2a/moving_variance"}, {"dtype": "float32", "shape": [256], "name": "bn4f_branch2b/gamma"}, {"dtype": "float32", "shape": [256], "name": "bn4f_branch2b/beta"}, {"dtype": "float32", "shape": [256], "name": "bn4f_branch2b/moving_mean"}, {"dtype": "float32", "shape": [256], "name": "bn4f_branch2b/moving_variance"}, {"dtype": "float32", "shape": [1024], "name": "bn4f_branch2c/gamma"}, {"dtype": "float32", "shape": [1024], "name": "bn4f_branch2c/beta"}, {"dtype": "float32", "shape": [1024], "name": "bn4f_branch2c/moving_mean"}, {"dtype": "float32", "shape": [1024], "name": "bn4f_branch2c/moving_variance"}, {"dtype": "float32", "shape": [2048], "name": "bn5a_branch1/gamma"}, {"dtype": "float32", "shape": [2048], "name": "bn5a_branch1/beta"}, {"dtype": "float32", "shape": [2048], "name": "bn5a_branch1/moving_mean"}, {"dtype": "float32", "shape": [2048], "name": "bn5a_branch1/moving_variance"}, {"dtype": "float32", "shape": [512], "name": "bn5a_branch2a/gamma"}, {"dtype": "float32", "shape": [512], "name": "bn5a_branch2a/beta"}, {"dtype": "float32", "shape": [512], "name": "bn5a_branch2a/moving_mean"}, {"dtype": "float32", "shape": [512], "name": "bn5a_branch2a/moving_variance"}, {"dtype": "float32", "shape": [512], "name": "bn5a_branch2b/gamma"}, {"dtype": "float32", "shape": [512], "name": "bn5a_branch2b/beta"}, {"dtype": "float32", "shape": [512], "name": "bn5a_branch2b/moving_mean"}, {"dtype": "float32", "shape": [512], "name": "bn5a_branch2b/moving_variance"}, {"dtype": "float32", "shape": [2048], "name": "bn5a_branch2c/gamma"}, {"dtype": "float32", "shape": [2048], "name": "bn5a_branch2c/beta"}, {"dtype": "float32", "shape": [2048], "name": "bn5a_branch2c/moving_mean"}, {"dtype": "float32", "shape": [2048], "name": "bn5a_branch2c/moving_variance"}, {"dtype": "float32", "shape": [512], "name": "bn5b_branch2a/gamma"}, {"dtype": "float32", "shape": [512], "name": "bn5b_branch2a/beta"}, {"dtype": "float32", "shape": [512], "name": "bn5b_branch2a/moving_mean"}, {"dtype": "float32", "shape": [512], "name": "bn5b_branch2a/moving_variance"}, {"dtype": "float32", "shape": [512], "name": "bn5b_branch2b/gamma"}, {"dtype": "float32", "shape": [512], "name": "bn5b_branch2b/beta"}, {"dtype": "float32", "shape": [512], "name": "bn5b_branch2b/moving_mean"}, {"dtype": "float32", "shape": [512], "name": "bn5b_branch2b/moving_variance"}, {"dtype": "float32", "shape": [2048], "name": "bn5b_branch2c/gamma"}, {"dtype": "float32", "shape": [2048], "name": "bn5b_branch2c/beta"}, {"dtype": "float32", "shape": [2048], "name": "bn5b_branch2c/moving_mean"}, {"dtype": "float32", "shape": [2048], "name": "bn5b_branch2c/moving_variance"}, {"dtype": "float32", "shape": [512], "name": "bn5c_branch2a/gamma"}, {"dtype": "float32", "shape": [512], "name": "bn5c_branch2a/beta"}, {"dtype": "float32", "shape": [512], "name": "bn5c_branch2a/moving_mean"}, {"dtype": "float32", "shape": [512], "name": "bn5c_branch2a/moving_variance"}, {"dtype": "float32", "shape": [512], "name": "bn5c_branch2b/gamma"}, {"dtype": "float32", "shape": [512], "name": "bn5c_branch2b/beta"}, {"dtype": "float32", "shape": [512], "name": "bn5c_branch2b/moving_mean"}, {"dtype": "float32", "shape": [512], "name": "bn5c_branch2b/moving_variance"}, {"dtype": "float32", "shape": [2048], "name": "bn5c_branch2c/gamma"}, {"dtype": "float32", "shape": [2048], "name": "bn5c_branch2c/beta"}, {"dtype": "float32", "shape": [2048], "name": "bn5c_branch2c/moving_mean"}, {"dtype": "float32", "shape": [2048], "name": "bn5c_branch2c/moving_variance"}, {"dtype": "float32", "shape": [64], "name": "bn_conv1/gamma"}, {"dtype": "float32", "shape": [64], "name": "bn_conv1/beta"}, {"dtype": "float32", "shape": [64], "name": "bn_conv1/moving_mean"}, {"dtype": "float32", "shape": [64], "name": "bn_conv1/moving_variance"}, {"dtype": "float32", "shape": [7, 7, 3, 64], "name": "conv1/kernel"}, {"dtype": "float32", "shape": [64], "name": "conv1/bias"}, {"dtype": "float32", "shape": [2048, 512], "name": "dense_1/kernel"}, {"dtype": "float32", "shape": [512], "name": "dense_1/bias"}, {"dtype": "float32", "shape": [512, 128], "name": "dense_2/kernel"}, {"dtype": "float32", "shape": [128], "name": "dense_2/bias"}, {"dtype": "float32", "shape": [128, 2], "name": "dense_3/kernel"}, {"dtype": "float32", "shape": [2], "name": "dense_3/bias"}, {"dtype": "float32", "shape": [1, 1, 64, 256], "name": "res2a_branch1/kernel"}, {"dtype": "float32", "shape": [256], "name": "res2a_branch1/bias"}, {"dtype": "float32", "shape": [1, 1, 64, 64], "name": "res2a_branch2a/kernel"}, {"dtype": "float32", "shape": [64], "name": "res2a_branch2a/bias"}, {"dtype": "float32", "shape": [3, 3, 64, 64], "name": "res2a_branch2b/kernel"}, {"dtype": "float32", "shape": [64], "name": "res2a_branch2b/bias"}, {"dtype": "float32", "shape": [1, 1, 64, 256], "name": "res2a_branch2c/kernel"}, {"dtype": "float32", "shape": [256], "name": "res2a_branch2c/bias"}, {"dtype": "float32", "shape": [1, 1, 256, 64], "name": "res2b_branch2a/kernel"}, {"dtype": "float32", "shape": [64], "name": "res2b_branch2a/bias"}, {"dtype": "float32", "shape": [3, 3, 64, 64], "name": "res2b_branch2b/kernel"}, {"dtype": "float32", "shape": [64], "name": "res2b_branch2b/bias"}, {"dtype": "float32", "shape": [1, 1, 64, 256], "name": "res2b_branch2c/kernel"}, {"dtype": "float32", "shape": [256], "name": "res2b_branch2c/bias"}, {"dtype": "float32", "shape": [1, 1, 256, 64], "name": "res2c_branch2a/kernel"}, {"dtype": "float32", "shape": [64], "name": "res2c_branch2a/bias"}, {"dtype": "float32", "shape": [3, 3, 64, 64], "name": "res2c_branch2b/kernel"}, {"dtype": "float32", "shape": [64], "name": "res2c_branch2b/bias"}, {"dtype": "float32", "shape": [1, 1, 64, 256], "name": "res2c_branch2c/kernel"}, {"dtype": "float32", "shape": [256], "name": "res2c_branch2c/bias"}, {"dtype": "float32", "shape": [1, 1, 256, 512], "name": "res3a_branch1/kernel"}, {"dtype": "float32", "shape": [512], "name": "res3a_branch1/bias"}, {"dtype": "float32", "shape": [1, 1, 256, 128], "name": "res3a_branch2a/kernel"}, {"dtype": "float32", "shape": [128], "name": "res3a_branch2a/bias"}, {"dtype": "float32", "shape": [3, 3, 128, 128], "name": "res3a_branch2b/kernel"}, {"dtype": "float32", "shape": [128], "name": "res3a_branch2b/bias"}, {"dtype": "float32", "shape": [1, 1, 128, 512], "name": "res3a_branch2c/kernel"}, {"dtype": "float32", "shape": [512], "name": "res3a_branch2c/bias"}, {"dtype": "float32", "shape": [1, 1, 512, 128], "name": "res3b_branch2a/kernel"}, {"dtype": "float32", "shape": [128], "name": "res3b_branch2a/bias"}, {"dtype": "float32", "shape": [3, 3, 128, 128], "name": "res3b_branch2b/kernel"}, {"dtype": "float32", "shape": [128], "name": "res3b_branch2b/bias"}, {"dtype": "float32", "shape": [1, 1, 128, 512], "name": "res3b_branch2c/kernel"}, {"dtype": "float32", "shape": [512], "name": "res3b_branch2c/bias"}, {"dtype": "float32", "shape": [1, 1, 512, 128], "name": "res3c_branch2a/kernel"}, {"dtype": "float32", "shape": [128], "name": "res3c_branch2a/bias"}, {"dtype": "float32", "shape": [3, 3, 128, 128], "name": "res3c_branch2b/kernel"}, {"dtype": "float32", "shape": [128], "name": "res3c_branch2b/bias"}, {"dtype": "float32", "shape": [1, 1, 128, 512], "name": "res3c_branch2c/kernel"}, {"dtype": "float32", "shape": [512], "name": "res3c_branch2c/bias"}, {"dtype": "float32", "shape": [1, 1, 512, 128], "name": "res3d_branch2a/kernel"}, {"dtype": "float32", "shape": [128], "name": "res3d_branch2a/bias"}, {"dtype": "float32", "shape": [3, 3, 128, 128], "name": "res3d_branch2b/kernel"}, {"dtype": "float32", "shape": [128], "name": "res3d_branch2b/bias"}, {"dtype": "float32", "shape": [1, 1, 128, 512], "name": "res3d_branch2c/kernel"}, {"dtype": "float32", "shape": [512], "name": "res3d_branch2c/bias"}, {"dtype": "float32", "shape": [1, 1, 512, 1024], "name": "res4a_branch1/kernel"}, {"dtype": "float32", "shape": [1024], "name": "res4a_branch1/bias"}, {"dtype": "float32", "shape": [1, 1, 512, 256], "name": "res4a_branch2a/kernel"}, {"dtype": "float32", "shape": [256], "name": "res4a_branch2a/bias"}, {"dtype": "float32", "shape": [3, 3, 256, 256], "name": "res4a_branch2b/kernel"}, {"dtype": "float32", "shape": [256], "name": "res4a_branch2b/bias"}, {"dtype": "float32", "shape": [1, 1, 256, 1024], "name": "res4a_branch2c/kernel"}, {"dtype": "float32", "shape": [1024], "name": "res4a_branch2c/bias"}, {"dtype": "float32", "shape": [1, 1, 1024, 256], "name": "res4b_branch2a/kernel"}, {"dtype": "float32", "shape": [256], "name": "res4b_branch2a/bias"}, {"dtype": "float32", "shape": [3, 3, 256, 256], "name": "res4b_branch2b/kernel"}, {"dtype": "float32", "shape": [256], "name": "res4b_branch2b/bias"}, {"dtype": "float32", "shape": [1, 1, 256, 1024], "name": "res4b_branch2c/kernel"}, {"dtype": "float32", "shape": [1024], "name": "res4b_branch2c/bias"}, {"dtype": "float32", "shape": [1, 1, 1024, 256], "name": "res4c_branch2a/kernel"}, {"dtype": "float32", "shape": [256], "name": "res4c_branch2a/bias"}, {"dtype": "float32", "shape": [3, 3, 256, 256], "name": "res4c_branch2b/kernel"}, {"dtype": "float32", "shape": [256], "name": "res4c_branch2b/bias"}, {"dtype": "float32", "shape": [1, 1, 256, 1024], "name": "res4c_branch2c/kernel"}, {"dtype": "float32", "shape": [1024], "name": "res4c_branch2c/bias"}, {"dtype": "float32", "shape": [1, 1, 1024, 256], "name": "res4d_branch2a/kernel"}, {"dtype": "float32", "shape": [256], "name": "res4d_branch2a/bias"}, {"dtype": "float32", "shape": [3, 3, 256, 256], "name": "res4d_branch2b/kernel"}, {"dtype": "float32", "shape": [256], "name": "res4d_branch2b/bias"}, {"dtype": "float32", "shape": [1, 1, 256, 1024], "name": "res4d_branch2c/kernel"}, {"dtype": "float32", "shape": [1024], "name": "res4d_branch2c/bias"}, {"dtype": "float32", "shape": [1, 1, 1024, 256], "name": "res4e_branch2a/kernel"}, {"dtype": "float32", "shape": [256], "name": "res4e_branch2a/bias"}, {"dtype": "float32", "shape": [3, 3, 256, 256], "name": "res4e_branch2b/kernel"}, {"dtype": "float32", "shape": [256], "name": "res4e_branch2b/bias"}, {"dtype": "float32", "shape": [1, 1, 256, 1024], "name": "res4e_branch2c/kernel"}, {"dtype": "float32", "shape": [1024], "name": "res4e_branch2c/bias"}, {"dtype": "float32", "shape": [1, 1, 1024, 256], "name": "res4f_branch2a/kernel"}, {"dtype": "float32", "shape": [256], "name": "res4f_branch2a/bias"}, {"dtype": "float32", "shape": [3, 3, 256, 256], "name": "res4f_branch2b/kernel"}, {"dtype": "float32", "shape": [256], "name": "res4f_branch2b/bias"}, {"dtype": "float32", "shape": [1, 1, 256, 1024], "name": "res4f_branch2c/kernel"}, {"dtype": "float32", "shape": [1024], "name": "res4f_branch2c/bias"}, {"dtype": "float32", "shape": [1, 1, 1024, 2048], "name": "res5a_branch1/kernel"}, {"dtype": "float32", "shape": [2048], "name": "res5a_branch1/bias"}, {"dtype": "float32", "shape": [1, 1, 1024, 512], "name": "res5a_branch2a/kernel"}, {"dtype": "float32", "shape": [512], "name": "res5a_branch2a/bias"}, {"dtype": "float32", "shape": [3, 3, 512, 512], "name": "res5a_branch2b/kernel"}, {"dtype": "float32", "shape": [512], "name": "res5a_branch2b/bias"}, {"dtype": "float32", "shape": [1, 1, 512, 2048], "name": "res5a_branch2c/kernel"}, {"dtype": "float32", "shape": [2048], "name": "res5a_branch2c/bias"}, {"dtype": "float32", "shape": [1, 1, 2048, 512], "name": "res5b_branch2a/kernel"}, {"dtype": "float32", "shape": [512], "name": "res5b_branch2a/bias"}, {"dtype": "float32", "shape": [3, 3, 512, 512], "name": "res5b_branch2b/kernel"}, {"dtype": "float32", "shape": [512], "name": "res5b_branch2b/bias"}, {"dtype": "float32", "shape": [1, 1, 512, 2048], "name": "res5b_branch2c/kernel"}, {"dtype": "float32", "shape": [2048], "name": "res5b_branch2c/bias"}, {"dtype": "float32", "shape": [1, 1, 2048, 512], "name": "res5c_branch2a/kernel"}, {"dtype": "float32", "shape": [512], "name": "res5c_branch2a/bias"}, {"dtype": "float32", "shape": [3, 3, 512, 512], "name": "res5c_branch2b/kernel"}, {"dtype": "float32", "shape": [512], "name": "res5c_branch2b/bias"}, {"dtype": "float32", "shape": [1, 1, 512, 2048], "name": "res5c_branch2c/kernel"}, {"dtype": "float32", "shape": [2048], "name": "res5c_branch2c/bias"}], "paths": ["group1-shard1of24", "group1-shard2of24", "group1-shard3of24", "group1-shard4of24", "group1-shard5of24", "group1-shard6of24", "group1-shard7of24", "group1-shard8of24", "group1-shard9of24", "group1-shard10of24", "group1-shard11of24", "group1-shard12of24", "group1-shard13of24", "group1-shard14of24", "group1-shard15of24", "group1-shard16of24", "group1-shard17of24", "group1-shard18of24", "group1-shard19of24", "group1-shard20of24", "group1-shard21of24", "group1-shard22of24", "group1-shard23of24", "group1-shard24of24"]}], "modelTopology": {"backend": "tensorflow", "model_config": {"config": {"output_layers": [["dense_3", 0, 0]], "input_layers": [["input_1", 0, 0]], "name": "model_1", "layers": [{"config": {"dtype": "float32", "sparse": false, "batch_input_shape": [null, 224, 224, 3], "name": "input_1"}, "class_name": "InputLayer", "name": "input_1", "inbound_nodes": []}, {"config": {"kernel_size": [7, 7], "kernel_regularizer": null, "use_bias": true, "padding": "same", "bias_constraint": null, "kernel_constraint": null, "dilation_rate": [1, 1], "bias_regularizer": null, "name": "conv1", "data_format": "channels_last", "bias_initializer": {"config": {}, "class_name": "Zeros"}, "trainable": true, "filters": 64, "activity_regularizer": null, "strides": [2, 2], "kernel_initializer": {"config": {"mode": "fan_avg", "seed": null, "distribution": "uniform", "scale": 1.0}, "class_name": "VarianceScaling"}, "activation": "linear"}, "class_name": "Conv2D", "name": "conv1", "inbound_nodes": [[["input_1", 0, 0, {}]]]}, {"config": {"gamma_regularizer": null, "beta_regularizer": null, "axis": 3, "epsilon": 0.001, "gamma_initializer": {"config": {}, "class_name": "Ones"}, "beta_constraint": null, "moving_variance_initializer": {"config": {}, "class_name": "Ones"}, "gamma_constraint": null, "momentum": 0.99, "name": "bn_conv1", "scale": true, "moving_mean_initializer": {"config": {}, "class_name": "Zeros"}, "trainable": true, "center": true, "beta_initializer": {"config": {}, "class_name": "Zeros"}}, "class_name": "BatchNormalization", "name": "bn_conv1", "inbound_nodes": [[["conv1", 0, 0, {}]]]}, {"config": {"trainable": true, "name": "activation_1", "activation": "relu"}, "class_name": "Activation", "name": "activation_1", "inbound_nodes": [[["bn_conv1", 0, 0, {}]]]}, {"config": {"data_format": "channels_last", "padding": "valid", "trainable": true, "pool_size": [3, 3], "strides": [2, 2], "name": "max_pooling2d_1"}, "class_name": "MaxPooling2D", "name": "max_pooling2d_1", "inbound_nodes": [[["activation_1", 0, 0, {}]]]}, {"config": {"kernel_size": [1, 1], "kernel_regularizer": null, "use_bias": true, "padding": "valid", "bias_constraint": null, "kernel_constraint": null, "dilation_rate": [1, 1], "bias_regularizer": null, "name": "res2a_branch2a", "data_format": "channels_last", "bias_initializer": {"config": {}, "class_name": "Zeros"}, "trainable": true, "filters": 64, "activity_regularizer": null, "strides": [1, 1], "kernel_initializer": {"config": {"mode": "fan_avg", "seed": null, "distribution": "uniform", "scale": 1.0}, "class_name": "VarianceScaling"}, "activation": "linear"}, "class_name": "Conv2D", "name": "res2a_branch2a", "inbound_nodes": [[["max_pooling2d_1", 0, 0, {}]]]}, {"config": {"gamma_regularizer": null, "beta_regularizer": null, "axis": 3, "epsilon": 0.001, "gamma_initializer": {"config": {}, "class_name": "Ones"}, "beta_constraint": null, "moving_variance_initializer": {"config": {}, "class_name": "Ones"}, "gamma_constraint": null, "momentum": 0.99, "name": "bn2a_branch2a", "scale": true, "moving_mean_initializer": {"config": {}, "class_name": "Zeros"}, "trainable": true, "center": true, "beta_initializer": {"config": {}, "class_name": "Zeros"}}, "class_name": "BatchNormalization", "name": "bn2a_branch2a", "inbound_nodes": [[["res2a_branch2a", 0, 0, {}]]]}, {"config": {"trainable": true, "name": "activation_2", "activation": "relu"}, "class_name": "Activation", "name": "activation_2", "inbound_nodes": [[["bn2a_branch2a", 0, 0, {}]]]}, {"config": {"kernel_size": [3, 3], "kernel_regularizer": null, "use_bias": true, "padding": "same", "bias_constraint": null, "kernel_constraint": null, "dilation_rate": [1, 1], "bias_regularizer": null, "name": "res2a_branch2b", "data_format": "channels_last", "bias_initializer": {"config": {}, "class_name": "Zeros"}, "trainable": true, "filters": 64, "activity_regularizer": null, "strides": [1, 1], "kernel_initializer": {"config": {"mode": "fan_avg", "seed": null, "distribution": "uniform", "scale": 1.0}, "class_name": "VarianceScaling"}, "activation": "linear"}, "class_name": "Conv2D", "name": "res2a_branch2b", "inbound_nodes": [[["activation_2", 0, 0, {}]]]}, {"config": {"gamma_regularizer": null, "beta_regularizer": null, "axis": 3, "epsilon": 0.001, "gamma_initializer": {"config": {}, "class_name": "Ones"}, "beta_constraint": null, "moving_variance_initializer": {"config": {}, "class_name": "Ones"}, "gamma_constraint": null, "momentum": 0.99, "name": "bn2a_branch2b", "scale": true, "moving_mean_initializer": {"config": {}, "class_name": "Zeros"}, "trainable": true, "center": true, "beta_initializer": {"config": {}, "class_name": "Zeros"}}, "class_name": "BatchNormalization", "name": "bn2a_branch2b", "inbound_nodes": [[["res2a_branch2b", 0, 0, {}]]]}, {"config": {"trainable": true, "name": "activation_3", "activation": "relu"}, "class_name": "Activation", "name": "activation_3", "inbound_nodes": [[["bn2a_branch2b", 0, 0, {}]]]}, {"config": {"kernel_size": [1, 1], "kernel_regularizer": null, "use_bias": true, "padding": "valid", "bias_constraint": null, "kernel_constraint": null, "dilation_rate": [1, 1], "bias_regularizer": null, "name": "res2a_branch2c", "data_format": "channels_last", "bias_initializer": {"config": {}, "class_name": "Zeros"}, "trainable": true, "filters": 256, "activity_regularizer": null, "strides": [1, 1], "kernel_initializer": {"config": {"mode": "fan_avg", "seed": null, "distribution": "uniform", "scale": 1.0}, "class_name": "VarianceScaling"}, "activation": "linear"}, "class_name": "Conv2D", "name": "res2a_branch2c", "inbound_nodes": [[["activation_3", 0, 0, {}]]]}, {"config": {"kernel_size": [1, 1], "kernel_regularizer": null, "use_bias": true, "padding": "valid", "bias_constraint": null, "kernel_constraint": null, "dilation_rate": [1, 1], "bias_regularizer": null, "name": "res2a_branch1", "data_format": "channels_last", "bias_initializer": {"config": {}, "class_name": "Zeros"}, "trainable": true, "filters": 256, "activity_regularizer": null, "strides": [1, 1], "kernel_initializer": {"config": {"mode": "fan_avg", "seed": null, "distribution": "uniform", "scale": 1.0}, "class_name": "VarianceScaling"}, "activation": "linear"}, "class_name": "Conv2D", "name": "res2a_branch1", "inbound_nodes": [[["max_pooling2d_1", 0, 0, {}]]]}, {"config": {"gamma_regularizer": null, "beta_regularizer": null, "axis": 3, "epsilon": 0.001, "gamma_initializer": {"config": {}, "class_name": "Ones"}, "beta_constraint": null, "moving_variance_initializer": {"config": {}, "class_name": "Ones"}, "gamma_constraint": null, "momentum": 0.99, "name": "bn2a_branch2c", "scale": true, "moving_mean_initializer": {"config": {}, "class_name": "Zeros"}, "trainable": true, "center": true, "beta_initializer": {"config": {}, "class_name": "Zeros"}}, "class_name": "BatchNormalization", "name": "bn2a_branch2c", "inbound_nodes": [[["res2a_branch2c", 0, 0, {}]]]}, {"config": {"gamma_regularizer": null, "beta_regularizer": null, "axis": 3, "epsilon": 0.001, "gamma_initializer": {"config": {}, "class_name": "Ones"}, "beta_constraint": null, "moving_variance_initializer": {"config": {}, "class_name": "Ones"}, "gamma_constraint": null, "momentum": 0.99, "name": "bn2a_branch1", "scale": true, "moving_mean_initializer": {"config": {}, "class_name": "Zeros"}, "trainable": true, "center": true, "beta_initializer": {"config": {}, "class_name": "Zeros"}}, "class_name": "BatchNormalization", "name": "bn2a_branch1", "inbound_nodes": [[["res2a_branch1", 0, 0, {}]]]}, {"config": {"trainable": true, "name": "add_1"}, "class_name": "Add", "name": "add_1", "inbound_nodes": [[["bn2a_branch2c", 0, 0, {}], ["bn2a_branch1", 0, 0, {}]]]}, {"config": {"trainable": true, "name": "activation_4", "activation": "relu"}, "class_name": "Activation", "name": "activation_4", "inbound_nodes": [[["add_1", 0, 0, {}]]]}, {"config": {"kernel_size": [1, 1], "kernel_regularizer": null, "use_bias": true, "padding": "valid", "bias_constraint": null, "kernel_constraint": null, "dilation_rate": [1, 1], "bias_regularizer": null, "name": "res2b_branch2a", "data_format": "channels_last", "bias_initializer": {"config": {}, "class_name": "Zeros"}, "trainable": true, "filters": 64, "activity_regularizer": null, "strides": [1, 1], "kernel_initializer": {"config": {"mode": "fan_avg", "seed": null, "distribution": "uniform", "scale": 1.0}, "class_name": "VarianceScaling"}, "activation": "linear"}, "class_name": "Conv2D", "name": "res2b_branch2a", "inbound_nodes": [[["activation_4", 0, 0, {}]]]}, {"config": {"gamma_regularizer": null, "beta_regularizer": null, "axis": 3, "epsilon": 0.001, "gamma_initializer": {"config": {}, "class_name": "Ones"}, "beta_constraint": null, "moving_variance_initializer": {"config": {}, "class_name": "Ones"}, "gamma_constraint": null, "momentum": 0.99, "name": "bn2b_branch2a", "scale": true, "moving_mean_initializer": {"config": {}, "class_name": "Zeros"}, "trainable": true, "center": true, "beta_initializer": {"config": {}, "class_name": "Zeros"}}, "class_name": "BatchNormalization", "name": "bn2b_branch2a", "inbound_nodes": [[["res2b_branch2a", 0, 0, {}]]]}, {"config": {"trainable": true, "name": "activation_5", "activation": "relu"}, "class_name": "Activation", "name": "activation_5", "inbound_nodes": [[["bn2b_branch2a", 0, 0, {}]]]}, {"config": {"kernel_size": [3, 3], "kernel_regularizer": null, "use_bias": true, "padding": "same", "bias_constraint": null, "kernel_constraint": null, "dilation_rate": [1, 1], "bias_regularizer": null, "name": "res2b_branch2b", "data_format": "channels_last", "bias_initializer": {"config": {}, "class_name": "Zeros"}, "trainable": true, "filters": 64, "activity_regularizer": null, "strides": [1, 1], "kernel_initializer": {"config": {"mode": "fan_avg", "seed": null, "distribution": "uniform", "scale": 1.0}, "class_name": "VarianceScaling"}, "activation": "linear"}, "class_name": "Conv2D", "name": "res2b_branch2b", "inbound_nodes": [[["activation_5", 0, 0, {}]]]}, {"config": {"gamma_regularizer": null, "beta_regularizer": null, "axis": 3, "epsilon": 0.001, "gamma_initializer": {"config": {}, "class_name": "Ones"}, "beta_constraint": null, "moving_variance_initializer": {"config": {}, "class_name": "Ones"}, "gamma_constraint": null, "momentum": 0.99, "name": "bn2b_branch2b", "scale": true, "moving_mean_initializer": {"config": {}, "class_name": "Zeros"}, "trainable": true, "center": true, "beta_initializer": {"config": {}, "class_name": "Zeros"}}, "class_name": "BatchNormalization", "name": "bn2b_branch2b", "inbound_nodes": [[["res2b_branch2b", 0, 0, {}]]]}, {"config": {"trainable": true, "name": "activation_6", "activation": "relu"}, "class_name": "Activation", "name": "activation_6", "inbound_nodes": [[["bn2b_branch2b", 0, 0, {}]]]}, {"config": {"kernel_size": [1, 1], "kernel_regularizer": null, "use_bias": true, "padding": "valid", "bias_constraint": null, "kernel_constraint": null, "dilation_rate": [1, 1], "bias_regularizer": null, "name": "res2b_branch2c", "data_format": "channels_last", "bias_initializer": {"config": {}, "class_name": "Zeros"}, "trainable": true, "filters": 256, "activity_regularizer": null, "strides": [1, 1], "kernel_initializer": {"config": {"mode": "fan_avg", "seed": null, "distribution": "uniform", "scale": 1.0}, "class_name": "VarianceScaling"}, "activation": "linear"}, "class_name": "Conv2D", "name": "res2b_branch2c", "inbound_nodes": [[["activation_6", 0, 0, {}]]]}, {"config": {"gamma_regularizer": null, "beta_regularizer": null, "axis": 3, "epsilon": 0.001, "gamma_initializer": {"config": {}, "class_name": "Ones"}, "beta_constraint": null, "moving_variance_initializer": {"config": {}, "class_name": "Ones"}, "gamma_constraint": null, "momentum": 0.99, "name": "bn2b_branch2c", "scale": true, "moving_mean_initializer": {"config": {}, "class_name": "Zeros"}, "trainable": true, "center": true, "beta_initializer": {"config": {}, "class_name": "Zeros"}}, "class_name": "BatchNormalization", "name": "bn2b_branch2c", "inbound_nodes": [[["res2b_branch2c", 0, 0, {}]]]}, {"config": {"trainable": true, "name": "add_2"}, "class_name": "Add", "name": "add_2", "inbound_nodes": [[["bn2b_branch2c", 0, 0, {}], ["activation_4", 0, 0, {}]]]}, {"config": {"trainable": true, "name": "activation_7", "activation": "relu"}, "class_name": "Activation", "name": "activation_7", "inbound_nodes": [[["add_2", 0, 0, {}]]]}, {"config": {"kernel_size": [1, 1], "kernel_regularizer": null, "use_bias": true, "padding": "valid", "bias_constraint": null, "kernel_constraint": null, "dilation_rate": [1, 1], "bias_regularizer": null, "name": "res2c_branch2a", "data_format": "channels_last", "bias_initializer": {"config": {}, "class_name": "Zeros"}, "trainable": true, "filters": 64, "activity_regularizer": null, "strides": [1, 1], "kernel_initializer": {"config": {"mode": "fan_avg", "seed": null, "distribution": "uniform", "scale": 1.0}, "class_name": "VarianceScaling"}, "activation": "linear"}, "class_name": "Conv2D", "name": "res2c_branch2a", "inbound_nodes": [[["activation_7", 0, 0, {}]]]}, {"config": {"gamma_regularizer": null, "beta_regularizer": null, "axis": 3, "epsilon": 0.001, "gamma_initializer": {"config": {}, "class_name": "Ones"}, "beta_constraint": null, "moving_variance_initializer": {"config": {}, "class_name": "Ones"}, "gamma_constraint": null, "momentum": 0.99, "name": "bn2c_branch2a", "scale": true, "moving_mean_initializer": {"config": {}, "class_name": "Zeros"}, "trainable": true, "center": true, "beta_initializer": {"config": {}, "class_name": "Zeros"}}, "class_name": "BatchNormalization", "name": "bn2c_branch2a", "inbound_nodes": [[["res2c_branch2a", 0, 0, {}]]]}, {"config": {"trainable": true, "name": "activation_8", "activation": "relu"}, "class_name": "Activation", "name": "activation_8", "inbound_nodes": [[["bn2c_branch2a", 0, 0, {}]]]}, {"config": {"kernel_size": [3, 3], "kernel_regularizer": null, "use_bias": true, "padding": "same", "bias_constraint": null, "kernel_constraint": null, "dilation_rate": [1, 1], "bias_regularizer": null, "name": "res2c_branch2b", "data_format": "channels_last", "bias_initializer": {"config": {}, "class_name": "Zeros"}, "trainable": true, "filters": 64, "activity_regularizer": null, "strides": [1, 1], "kernel_initializer": {"config": {"mode": "fan_avg", "seed": null, "distribution": "uniform", "scale": 1.0}, "class_name": "VarianceScaling"}, "activation": "linear"}, "class_name": "Conv2D", "name": "res2c_branch2b", "inbound_nodes": [[["activation_8", 0, 0, {}]]]}, {"config": {"gamma_regularizer": null, "beta_regularizer": null, "axis": 3, "epsilon": 0.001, "gamma_initializer": {"config": {}, "class_name": "Ones"}, "beta_constraint": null, "moving_variance_initializer": {"config": {}, "class_name": "Ones"}, "gamma_constraint": null, "momentum": 0.99, "name": "bn2c_branch2b", "scale": true, "moving_mean_initializer": {"config": {}, "class_name": "Zeros"}, "trainable": true, "center": true, "beta_initializer": {"config": {}, "class_name": "Zeros"}}, "class_name": "BatchNormalization", "name": "bn2c_branch2b", "inbound_nodes": [[["res2c_branch2b", 0, 0, {}]]]}, {"config": {"trainable": true, "name": "activation_9", "activation": "relu"}, "class_name": "Activation", "name": "activation_9", "inbound_nodes": [[["bn2c_branch2b", 0, 0, {}]]]}, {"config": {"kernel_size": [1, 1], "kernel_regularizer": null, "use_bias": true, "padding": "valid", "bias_constraint": null, "kernel_constraint": null, "dilation_rate": [1, 1], "bias_regularizer": null, "name": "res2c_branch2c", "data_format": "channels_last", "bias_initializer": {"config": {}, "class_name": "Zeros"}, "trainable": true, "filters": 256, "activity_regularizer": null, "strides": [1, 1], "kernel_initializer": {"config": {"mode": "fan_avg", "seed": null, "distribution": "uniform", "scale": 1.0}, "class_name": "VarianceScaling"}, "activation": "linear"}, "class_name": "Conv2D", "name": "res2c_branch2c", "inbound_nodes": [[["activation_9", 0, 0, {}]]]}, {"config": {"gamma_regularizer": null, "beta_regularizer": null, "axis": 3, "epsilon": 0.001, "gamma_initializer": {"config": {}, "class_name": "Ones"}, "beta_constraint": null, "moving_variance_initializer": {"config": {}, "class_name": "Ones"}, "gamma_constraint": null, "momentum": 0.99, "name": "bn2c_branch2c", "scale": true, "moving_mean_initializer": {"config": {}, "class_name": "Zeros"}, "trainable": true, "center": true, "beta_initializer": {"config": {}, "class_name": "Zeros"}}, "class_name": "BatchNormalization", "name": "bn2c_branch2c", "inbound_nodes": [[["res2c_branch2c", 0, 0, {}]]]}, {"config": {"trainable": true, "name": "add_3"}, "class_name": "Add", "name": "add_3", "inbound_nodes": [[["bn2c_branch2c", 0, 0, {}], ["activation_7", 0, 0, {}]]]}, {"config": {"trainable": true, "name": "activation_10", "activation": "relu"}, "class_name": "Activation", "name": "activation_10", "inbound_nodes": [[["add_3", 0, 0, {}]]]}, {"config": {"kernel_size": [1, 1], "kernel_regularizer": null, "use_bias": true, "padding": "valid", "bias_constraint": null, "kernel_constraint": null, "dilation_rate": [1, 1], "bias_regularizer": null, "name": "res3a_branch2a", "data_format": "channels_last", "bias_initializer": {"config": {}, "class_name": "Zeros"}, "trainable": true, "filters": 128, "activity_regularizer": null, "strides": [2, 2], "kernel_initializer": {"config": {"mode": "fan_avg", "seed": null, "distribution": "uniform", "scale": 1.0}, "class_name": "VarianceScaling"}, "activation": "linear"}, "class_name": "Conv2D", "name": "res3a_branch2a", "inbound_nodes": [[["activation_10", 0, 0, {}]]]}, {"config": {"gamma_regularizer": null, "beta_regularizer": null, "axis": 3, "epsilon": 0.001, "gamma_initializer": {"config": {}, "class_name": "Ones"}, "beta_constraint": null, "moving_variance_initializer": {"config": {}, "class_name": "Ones"}, "gamma_constraint": null, "momentum": 0.99, "name": "bn3a_branch2a", "scale": true, "moving_mean_initializer": {"config": {}, "class_name": "Zeros"}, "trainable": true, "center": true, "beta_initializer": {"config": {}, "class_name": "Zeros"}}, "class_name": "BatchNormalization", "name": "bn3a_branch2a", "inbound_nodes": [[["res3a_branch2a", 0, 0, {}]]]}, {"config": {"trainable": true, "name": "activation_11", "activation": "relu"}, "class_name": "Activation", "name": "activation_11", "inbound_nodes": [[["bn3a_branch2a", 0, 0, {}]]]}, {"config": {"kernel_size": [3, 3], "kernel_regularizer": null, "use_bias": true, "padding": "same", "bias_constraint": null, "kernel_constraint": null, "dilation_rate": [1, 1], "bias_regularizer": null, "name": "res3a_branch2b", "data_format": "channels_last", "bias_initializer": {"config": {}, "class_name": "Zeros"}, "trainable": true, "filters": 128, "activity_regularizer": null, "strides": [1, 1], "kernel_initializer": {"config": {"mode": "fan_avg", "seed": null, "distribution": "uniform", "scale": 1.0}, "class_name": "VarianceScaling"}, "activation": "linear"}, "class_name": "Conv2D", "name": "res3a_branch2b", "inbound_nodes": [[["activation_11", 0, 0, {}]]]}, {"config": {"gamma_regularizer": null, "beta_regularizer": null, "axis": 3, "epsilon": 0.001, "gamma_initializer": {"config": {}, "class_name": "Ones"}, "beta_constraint": null, "moving_variance_initializer": {"config": {}, "class_name": "Ones"}, "gamma_constraint": null, "momentum": 0.99, "name": "bn3a_branch2b", "scale": true, "moving_mean_initializer": {"config": {}, "class_name": "Zeros"}, "trainable": true, "center": true, "beta_initializer": {"config": {}, "class_name": "Zeros"}}, "class_name": "BatchNormalization", "name": "bn3a_branch2b", "inbound_nodes": [[["res3a_branch2b", 0, 0, {}]]]}, {"config": {"trainable": true, "name": "activation_12", "activation": "relu"}, "class_name": "Activation", "name": "activation_12", "inbound_nodes": [[["bn3a_branch2b", 0, 0, {}]]]}, {"config": {"kernel_size": [1, 1], "kernel_regularizer": null, "use_bias": true, "padding": "valid", "bias_constraint": null, "kernel_constraint": null, "dilation_rate": [1, 1], "bias_regularizer": null, "name": "res3a_branch2c", "data_format": "channels_last", "bias_initializer": {"config": {}, "class_name": "Zeros"}, "trainable": true, "filters": 512, "activity_regularizer": null, "strides": [1, 1], "kernel_initializer": {"config": {"mode": "fan_avg", "seed": null, "distribution": "uniform", "scale": 1.0}, "class_name": "VarianceScaling"}, "activation": "linear"}, "class_name": "Conv2D", "name": "res3a_branch2c", "inbound_nodes": [[["activation_12", 0, 0, {}]]]}, {"config": {"kernel_size": [1, 1], "kernel_regularizer": null, "use_bias": true, "padding": "valid", "bias_constraint": null, "kernel_constraint": null, "dilation_rate": [1, 1], "bias_regularizer": null, "name": "res3a_branch1", "data_format": "channels_last", "bias_initializer": {"config": {}, "class_name": "Zeros"}, "trainable": true, "filters": 512, "activity_regularizer": null, "strides": [2, 2], "kernel_initializer": {"config": {"mode": "fan_avg", "seed": null, "distribution": "uniform", "scale": 1.0}, "class_name": "VarianceScaling"}, "activation": "linear"}, "class_name": "Conv2D", "name": "res3a_branch1", "inbound_nodes": [[["activation_10", 0, 0, {}]]]}, {"config": {"gamma_regularizer": null, "beta_regularizer": null, "axis": 3, "epsilon": 0.001, "gamma_initializer": {"config": {}, "class_name": "Ones"}, "beta_constraint": null, "moving_variance_initializer": {"config": {}, "class_name": "Ones"}, "gamma_constraint": null, "momentum": 0.99, "name": "bn3a_branch2c", "scale": true, "moving_mean_initializer": {"config": {}, "class_name": "Zeros"}, "trainable": true, "center": true, "beta_initializer": {"config": {}, "class_name": "Zeros"}}, "class_name": "BatchNormalization", "name": "bn3a_branch2c", "inbound_nodes": [[["res3a_branch2c", 0, 0, {}]]]}, {"config": {"gamma_regularizer": null, "beta_regularizer": null, "axis": 3, "epsilon": 0.001, "gamma_initializer": {"config": {}, "class_name": "Ones"}, "beta_constraint": null, "moving_variance_initializer": {"config": {}, "class_name": "Ones"}, "gamma_constraint": null, "momentum": 0.99, "name": "bn3a_branch1", "scale": true, "moving_mean_initializer": {"config": {}, "class_name": "Zeros"}, "trainable": true, "center": true, "beta_initializer": {"config": {}, "class_name": "Zeros"}}, "class_name": "BatchNormalization", "name": "bn3a_branch1", "inbound_nodes": [[["res3a_branch1", 0, 0, {}]]]}, {"config": {"trainable": true, "name": "add_4"}, "class_name": "Add", "name": "add_4", "inbound_nodes": [[["bn3a_branch2c", 0, 0, {}], ["bn3a_branch1", 0, 0, {}]]]}, {"config": {"trainable": true, "name": "activation_13", "activation": "relu"}, "class_name": "Activation", "name": "activation_13", "inbound_nodes": [[["add_4", 0, 0, {}]]]}, {"config": {"kernel_size": [1, 1], "kernel_regularizer": null, "use_bias": true, "padding": "valid", "bias_constraint": null, "kernel_constraint": null, "dilation_rate": [1, 1], "bias_regularizer": null, "name": "res3b_branch2a", "data_format": "channels_last", "bias_initializer": {"config": {}, "class_name": "Zeros"}, "trainable": true, "filters": 128, "activity_regularizer": null, "strides": [1, 1], "kernel_initializer": {"config": {"mode": "fan_avg", "seed": null, "distribution": "uniform", "scale": 1.0}, "class_name": "VarianceScaling"}, "activation": "linear"}, "class_name": "Conv2D", "name": "res3b_branch2a", "inbound_nodes": [[["activation_13", 0, 0, {}]]]}, {"config": {"gamma_regularizer": null, "beta_regularizer": null, "axis": 3, "epsilon": 0.001, "gamma_initializer": {"config": {}, "class_name": "Ones"}, "beta_constraint": null, "moving_variance_initializer": {"config": {}, "class_name": "Ones"}, "gamma_constraint": null, "momentum": 0.99, "name": "bn3b_branch2a", "scale": true, "moving_mean_initializer": {"config": {}, "class_name": "Zeros"}, "trainable": true, "center": true, "beta_initializer": {"config": {}, "class_name": "Zeros"}}, "class_name": "BatchNormalization", "name": "bn3b_branch2a", "inbound_nodes": [[["res3b_branch2a", 0, 0, {}]]]}, {"config": {"trainable": true, "name": "activation_14", "activation": "relu"}, "class_name": "Activation", "name": "activation_14", "inbound_nodes": [[["bn3b_branch2a", 0, 0, {}]]]}, {"config": {"kernel_size": [3, 3], "kernel_regularizer": null, "use_bias": true, "padding": "same", "bias_constraint": null, "kernel_constraint": null, "dilation_rate": [1, 1], "bias_regularizer": null, "name": "res3b_branch2b", "data_format": "channels_last", "bias_initializer": {"config": {}, "class_name": "Zeros"}, "trainable": true, "filters": 128, "activity_regularizer": null, "strides": [1, 1], "kernel_initializer": {"config": {"mode": "fan_avg", "seed": null, "distribution": "uniform", "scale": 1.0}, "class_name": "VarianceScaling"}, "activation": "linear"}, "class_name": "Conv2D", "name": "res3b_branch2b", "inbound_nodes": [[["activation_14", 0, 0, {}]]]}, {"config": {"gamma_regularizer": null, "beta_regularizer": null, "axis": 3, "epsilon": 0.001, "gamma_initializer": {"config": {}, "class_name": "Ones"}, "beta_constraint": null, "moving_variance_initializer": {"config": {}, "class_name": "Ones"}, "gamma_constraint": null, "momentum": 0.99, "name": "bn3b_branch2b", "scale": true, "moving_mean_initializer": {"config": {}, "class_name": "Zeros"}, "trainable": true, "center": true, "beta_initializer": {"config": {}, "class_name": "Zeros"}}, "class_name": "BatchNormalization", "name": "bn3b_branch2b", "inbound_nodes": [[["res3b_branch2b", 0, 0, {}]]]}, {"config": {"trainable": true, "name": "activation_15", "activation": "relu"}, "class_name": "Activation", "name": "activation_15", "inbound_nodes": [[["bn3b_branch2b", 0, 0, {}]]]}, {"config": {"kernel_size": [1, 1], "kernel_regularizer": null, "use_bias": true, "padding": "valid", "bias_constraint": null, "kernel_constraint": null, "dilation_rate": [1, 1], "bias_regularizer": null, "name": "res3b_branch2c", "data_format": "channels_last", "bias_initializer": {"config": {}, "class_name": "Zeros"}, "trainable": true, "filters": 512, "activity_regularizer": null, "strides": [1, 1], "kernel_initializer": {"config": {"mode": "fan_avg", "seed": null, "distribution": "uniform", "scale": 1.0}, "class_name": "VarianceScaling"}, "activation": "linear"}, "class_name": "Conv2D", "name": "res3b_branch2c", "inbound_nodes": [[["activation_15", 0, 0, {}]]]}, {"config": {"gamma_regularizer": null, "beta_regularizer": null, "axis": 3, "epsilon": 0.001, "gamma_initializer": {"config": {}, "class_name": "Ones"}, "beta_constraint": null, "moving_variance_initializer": {"config": {}, "class_name": "Ones"}, "gamma_constraint": null, "momentum": 0.99, "name": "bn3b_branch2c", "scale": true, "moving_mean_initializer": {"config": {}, "class_name": "Zeros"}, "trainable": true, "center": true, "beta_initializer": {"config": {}, "class_name": "Zeros"}}, "class_name": "BatchNormalization", "name": "bn3b_branch2c", "inbound_nodes": [[["res3b_branch2c", 0, 0, {}]]]}, {"config": {"trainable": true, "name": "add_5"}, "class_name": "Add", "name": "add_5", "inbound_nodes": [[["bn3b_branch2c", 0, 0, {}], ["activation_13", 0, 0, {}]]]}, {"config": {"trainable": true, "name": "activation_16", "activation": "relu"}, "class_name": "Activation", "name": "activation_16", "inbound_nodes": [[["add_5", 0, 0, {}]]]}, {"config": {"kernel_size": [1, 1], "kernel_regularizer": null, "use_bias": true, "padding": "valid", "bias_constraint": null, "kernel_constraint": null, "dilation_rate": [1, 1], "bias_regularizer": null, "name": "res3c_branch2a", "data_format": "channels_last", "bias_initializer": {"config": {}, "class_name": "Zeros"}, "trainable": true, "filters": 128, "activity_regularizer": null, "strides": [1, 1], "kernel_initializer": {"config": {"mode": "fan_avg", "seed": null, "distribution": "uniform", "scale": 1.0}, "class_name": "VarianceScaling"}, "activation": "linear"}, "class_name": "Conv2D", "name": "res3c_branch2a", "inbound_nodes": [[["activation_16", 0, 0, {}]]]}, {"config": {"gamma_regularizer": null, "beta_regularizer": null, "axis": 3, "epsilon": 0.001, "gamma_initializer": {"config": {}, "class_name": "Ones"}, "beta_constraint": null, "moving_variance_initializer": {"config": {}, "class_name": "Ones"}, "gamma_constraint": null, "momentum": 0.99, "name": "bn3c_branch2a", "scale": true, "moving_mean_initializer": {"config": {}, "class_name": "Zeros"}, "trainable": true, "center": true, "beta_initializer": {"config": {}, "class_name": "Zeros"}}, "class_name": "BatchNormalization", "name": "bn3c_branch2a", "inbound_nodes": [[["res3c_branch2a", 0, 0, {}]]]}, {"config": {"trainable": true, "name": "activation_17", "activation": "relu"}, "class_name": "Activation", "name": "activation_17", "inbound_nodes": [[["bn3c_branch2a", 0, 0, {}]]]}, {"config": {"kernel_size": [3, 3], "kernel_regularizer": null, "use_bias": true, "padding": "same", "bias_constraint": null, "kernel_constraint": null, "dilation_rate": [1, 1], "bias_regularizer": null, "name": "res3c_branch2b", "data_format": "channels_last", "bias_initializer": {"config": {}, "class_name": "Zeros"}, "trainable": true, "filters": 128, "activity_regularizer": null, "strides": [1, 1], "kernel_initializer": {"config": {"mode": "fan_avg", "seed": null, "distribution": "uniform", "scale": 1.0}, "class_name": "VarianceScaling"}, "activation": "linear"}, "class_name": "Conv2D", "name": "res3c_branch2b", "inbound_nodes": [[["activation_17", 0, 0, {}]]]}, {"config": {"gamma_regularizer": null, "beta_regularizer": null, "axis": 3, "epsilon": 0.001, "gamma_initializer": {"config": {}, "class_name": "Ones"}, "beta_constraint": null, "moving_variance_initializer": {"config": {}, "class_name": "Ones"}, "gamma_constraint": null, "momentum": 0.99, "name": "bn3c_branch2b", "scale": true, "moving_mean_initializer": {"config": {}, "class_name": "Zeros"}, "trainable": true, "center": true, "beta_initializer": {"config": {}, "class_name": "Zeros"}}, "class_name": "BatchNormalization", "name": "bn3c_branch2b", "inbound_nodes": [[["res3c_branch2b", 0, 0, {}]]]}, {"config": {"trainable": true, "name": "activation_18", "activation": "relu"}, "class_name": "Activation", "name": "activation_18", "inbound_nodes": [[["bn3c_branch2b", 0, 0, {}]]]}, {"config": {"kernel_size": [1, 1], "kernel_regularizer": null, "use_bias": true, "padding": "valid", "bias_constraint": null, "kernel_constraint": null, "dilation_rate": [1, 1], "bias_regularizer": null, "name": "res3c_branch2c", "data_format": "channels_last", "bias_initializer": {"config": {}, "class_name": "Zeros"}, "trainable": true, "filters": 512, "activity_regularizer": null, "strides": [1, 1], "kernel_initializer": {"config": {"mode": "fan_avg", "seed": null, "distribution": "uniform", "scale": 1.0}, "class_name": "VarianceScaling"}, "activation": "linear"}, "class_name": "Conv2D", "name": "res3c_branch2c", "inbound_nodes": [[["activation_18", 0, 0, {}]]]}, {"config": {"gamma_regularizer": null, "beta_regularizer": null, "axis": 3, "epsilon": 0.001, "gamma_initializer": {"config": {}, "class_name": "Ones"}, "beta_constraint": null, "moving_variance_initializer": {"config": {}, "class_name": "Ones"}, "gamma_constraint": null, "momentum": 0.99, "name": "bn3c_branch2c", "scale": true, "moving_mean_initializer": {"config": {}, "class_name": "Zeros"}, "trainable": true, "center": true, "beta_initializer": {"config": {}, "class_name": "Zeros"}}, "class_name": "BatchNormalization", "name": "bn3c_branch2c", "inbound_nodes": [[["res3c_branch2c", 0, 0, {}]]]}, {"config": {"trainable": true, "name": "add_6"}, "class_name": "Add", "name": "add_6", "inbound_nodes": [[["bn3c_branch2c", 0, 0, {}], ["activation_16", 0, 0, {}]]]}, {"config": {"trainable": true, "name": "activation_19", "activation": "relu"}, "class_name": "Activation", "name": "activation_19", "inbound_nodes": [[["add_6", 0, 0, {}]]]}, {"config": {"kernel_size": [1, 1], "kernel_regularizer": null, "use_bias": true, "padding": "valid", "bias_constraint": null, "kernel_constraint": null, "dilation_rate": [1, 1], "bias_regularizer": null, "name": "res3d_branch2a", "data_format": "channels_last", "bias_initializer": {"config": {}, "class_name": "Zeros"}, "trainable": true, "filters": 128, "activity_regularizer": null, "strides": [1, 1], "kernel_initializer": {"config": {"mode": "fan_avg", "seed": null, "distribution": "uniform", "scale": 1.0}, "class_name": "VarianceScaling"}, "activation": "linear"}, "class_name": "Conv2D", "name": "res3d_branch2a", "inbound_nodes": [[["activation_19", 0, 0, {}]]]}, {"config": {"gamma_regularizer": null, "beta_regularizer": null, "axis": 3, "epsilon": 0.001, "gamma_initializer": {"config": {}, "class_name": "Ones"}, "beta_constraint": null, "moving_variance_initializer": {"config": {}, "class_name": "Ones"}, "gamma_constraint": null, "momentum": 0.99, "name": "bn3d_branch2a", "scale": true, "moving_mean_initializer": {"config": {}, "class_name": "Zeros"}, "trainable": true, "center": true, "beta_initializer": {"config": {}, "class_name": "Zeros"}}, "class_name": "BatchNormalization", "name": "bn3d_branch2a", "inbound_nodes": [[["res3d_branch2a", 0, 0, {}]]]}, {"config": {"trainable": true, "name": "activation_20", "activation": "relu"}, "class_name": "Activation", "name": "activation_20", "inbound_nodes": [[["bn3d_branch2a", 0, 0, {}]]]}, {"config": {"kernel_size": [3, 3], "kernel_regularizer": null, "use_bias": true, "padding": "same", "bias_constraint": null, "kernel_constraint": null, "dilation_rate": [1, 1], "bias_regularizer": null, "name": "res3d_branch2b", "data_format": "channels_last", "bias_initializer": {"config": {}, "class_name": "Zeros"}, "trainable": true, "filters": 128, "activity_regularizer": null, "strides": [1, 1], "kernel_initializer": {"config": {"mode": "fan_avg", "seed": null, "distribution": "uniform", "scale": 1.0}, "class_name": "VarianceScaling"}, "activation": "linear"}, "class_name": "Conv2D", "name": "res3d_branch2b", "inbound_nodes": [[["activation_20", 0, 0, {}]]]}, {"config": {"gamma_regularizer": null, "beta_regularizer": null, "axis": 3, "epsilon": 0.001, "gamma_initializer": {"config": {}, "class_name": "Ones"}, "beta_constraint": null, "moving_variance_initializer": {"config": {}, "class_name": "Ones"}, "gamma_constraint": null, "momentum": 0.99, "name": "bn3d_branch2b", "scale": true, "moving_mean_initializer": {"config": {}, "class_name": "Zeros"}, "trainable": true, "center": true, "beta_initializer": {"config": {}, "class_name": "Zeros"}}, "class_name": "BatchNormalization", "name": "bn3d_branch2b", "inbound_nodes": [[["res3d_branch2b", 0, 0, {}]]]}, {"config": {"trainable": true, "name": "activation_21", "activation": "relu"}, "class_name": "Activation", "name": "activation_21", "inbound_nodes": [[["bn3d_branch2b", 0, 0, {}]]]}, {"config": {"kernel_size": [1, 1], "kernel_regularizer": null, "use_bias": true, "padding": "valid", "bias_constraint": null, "kernel_constraint": null, "dilation_rate": [1, 1], "bias_regularizer": null, "name": "res3d_branch2c", "data_format": "channels_last", "bias_initializer": {"config": {}, "class_name": "Zeros"}, "trainable": true, "filters": 512, "activity_regularizer": null, "strides": [1, 1], "kernel_initializer": {"config": {"mode": "fan_avg", "seed": null, "distribution": "uniform", "scale": 1.0}, "class_name": "VarianceScaling"}, "activation": "linear"}, "class_name": "Conv2D", "name": "res3d_branch2c", "inbound_nodes": [[["activation_21", 0, 0, {}]]]}, {"config": {"gamma_regularizer": null, "beta_regularizer": null, "axis": 3, "epsilon": 0.001, "gamma_initializer": {"config": {}, "class_name": "Ones"}, "beta_constraint": null, "moving_variance_initializer": {"config": {}, "class_name": "Ones"}, "gamma_constraint": null, "momentum": 0.99, "name": "bn3d_branch2c", "scale": true, "moving_mean_initializer": {"config": {}, "class_name": "Zeros"}, "trainable": true, "center": true, "beta_initializer": {"config": {}, "class_name": "Zeros"}}, "class_name": "BatchNormalization", "name": "bn3d_branch2c", "inbound_nodes": [[["res3d_branch2c", 0, 0, {}]]]}, {"config": {"trainable": true, "name": "add_7"}, "class_name": "Add", "name": "add_7", "inbound_nodes": [[["bn3d_branch2c", 0, 0, {}], ["activation_19", 0, 0, {}]]]}, {"config": {"trainable": true, "name": "activation_22", "activation": "relu"}, "class_name": "Activation", "name": "activation_22", "inbound_nodes": [[["add_7", 0, 0, {}]]]}, {"config": {"kernel_size": [1, 1], "kernel_regularizer": null, "use_bias": true, "padding": "valid", "bias_constraint": null, "kernel_constraint": null, "dilation_rate": [1, 1], "bias_regularizer": null, "name": "res4a_branch2a", "data_format": "channels_last", "bias_initializer": {"config": {}, "class_name": "Zeros"}, "trainable": true, "filters": 256, "activity_regularizer": null, "strides": [2, 2], "kernel_initializer": {"config": {"mode": "fan_avg", "seed": null, "distribution": "uniform", "scale": 1.0}, "class_name": "VarianceScaling"}, "activation": "linear"}, "class_name": "Conv2D", "name": "res4a_branch2a", "inbound_nodes": [[["activation_22", 0, 0, {}]]]}, {"config": {"gamma_regularizer": null, "beta_regularizer": null, "axis": 3, "epsilon": 0.001, "gamma_initializer": {"config": {}, "class_name": "Ones"}, "beta_constraint": null, "moving_variance_initializer": {"config": {}, "class_name": "Ones"}, "gamma_constraint": null, "momentum": 0.99, "name": "bn4a_branch2a", "scale": true, "moving_mean_initializer": {"config": {}, "class_name": "Zeros"}, "trainable": true, "center": true, "beta_initializer": {"config": {}, "class_name": "Zeros"}}, "class_name": "BatchNormalization", "name": "bn4a_branch2a", "inbound_nodes": [[["res4a_branch2a", 0, 0, {}]]]}, {"config": {"trainable": true, "name": "activation_23", "activation": "relu"}, "class_name": "Activation", "name": "activation_23", "inbound_nodes": [[["bn4a_branch2a", 0, 0, {}]]]}, {"config": {"kernel_size": [3, 3], "kernel_regularizer": null, "use_bias": true, "padding": "same", "bias_constraint": null, "kernel_constraint": null, "dilation_rate": [1, 1], "bias_regularizer": null, "name": "res4a_branch2b", "data_format": "channels_last", "bias_initializer": {"config": {}, "class_name": "Zeros"}, "trainable": true, "filters": 256, "activity_regularizer": null, "strides": [1, 1], "kernel_initializer": {"config": {"mode": "fan_avg", "seed": null, "distribution": "uniform", "scale": 1.0}, "class_name": "VarianceScaling"}, "activation": "linear"}, "class_name": "Conv2D", "name": "res4a_branch2b", "inbound_nodes": [[["activation_23", 0, 0, {}]]]}, {"config": {"gamma_regularizer": null, "beta_regularizer": null, "axis": 3, "epsilon": 0.001, "gamma_initializer": {"config": {}, "class_name": "Ones"}, "beta_constraint": null, "moving_variance_initializer": {"config": {}, "class_name": "Ones"}, "gamma_constraint": null, "momentum": 0.99, "name": "bn4a_branch2b", "scale": true, "moving_mean_initializer": {"config": {}, "class_name": "Zeros"}, "trainable": true, "center": true, "beta_initializer": {"config": {}, "class_name": "Zeros"}}, "class_name": "BatchNormalization", "name": "bn4a_branch2b", "inbound_nodes": [[["res4a_branch2b", 0, 0, {}]]]}, {"config": {"trainable": true, "name": "activation_24", "activation": "relu"}, "class_name": "Activation", "name": "activation_24", "inbound_nodes": [[["bn4a_branch2b", 0, 0, {}]]]}, {"config": {"kernel_size": [1, 1], "kernel_regularizer": null, "use_bias": true, "padding": "valid", "bias_constraint": null, "kernel_constraint": null, "dilation_rate": [1, 1], "bias_regularizer": null, "name": "res4a_branch2c", "data_format": "channels_last", "bias_initializer": {"config": {}, "class_name": "Zeros"}, "trainable": true, "filters": 1024, "activity_regularizer": null, "strides": [1, 1], "kernel_initializer": {"config": {"mode": "fan_avg", "seed": null, "distribution": "uniform", "scale": 1.0}, "class_name": "VarianceScaling"}, "activation": "linear"}, "class_name": "Conv2D", "name": "res4a_branch2c", "inbound_nodes": [[["activation_24", 0, 0, {}]]]}, {"config": {"kernel_size": [1, 1], "kernel_regularizer": null, "use_bias": true, "padding": "valid", "bias_constraint": null, "kernel_constraint": null, "dilation_rate": [1, 1], "bias_regularizer": null, "name": "res4a_branch1", "data_format": "channels_last", "bias_initializer": {"config": {}, "class_name": "Zeros"}, "trainable": true, "filters": 1024, "activity_regularizer": null, "strides": [2, 2], "kernel_initializer": {"config": {"mode": "fan_avg", "seed": null, "distribution": "uniform", "scale": 1.0}, "class_name": "VarianceScaling"}, "activation": "linear"}, "class_name": "Conv2D", "name": "res4a_branch1", "inbound_nodes": [[["activation_22", 0, 0, {}]]]}, {"config": {"gamma_regularizer": null, "beta_regularizer": null, "axis": 3, "epsilon": 0.001, "gamma_initializer": {"config": {}, "class_name": "Ones"}, "beta_constraint": null, "moving_variance_initializer": {"config": {}, "class_name": "Ones"}, "gamma_constraint": null, "momentum": 0.99, "name": "bn4a_branch2c", "scale": true, "moving_mean_initializer": {"config": {}, "class_name": "Zeros"}, "trainable": true, "center": true, "beta_initializer": {"config": {}, "class_name": "Zeros"}}, "class_name": "BatchNormalization", "name": "bn4a_branch2c", "inbound_nodes": [[["res4a_branch2c", 0, 0, {}]]]}, {"config": {"gamma_regularizer": null, "beta_regularizer": null, "axis": 3, "epsilon": 0.001, "gamma_initializer": {"config": {}, "class_name": "Ones"}, "beta_constraint": null, "moving_variance_initializer": {"config": {}, "class_name": "Ones"}, "gamma_constraint": null, "momentum": 0.99, "name": "bn4a_branch1", "scale": true, "moving_mean_initializer": {"config": {}, "class_name": "Zeros"}, "trainable": true, "center": true, "beta_initializer": {"config": {}, "class_name": "Zeros"}}, "class_name": "BatchNormalization", "name": "bn4a_branch1", "inbound_nodes": [[["res4a_branch1", 0, 0, {}]]]}, {"config": {"trainable": true, "name": "add_8"}, "class_name": "Add", "name": "add_8", "inbound_nodes": [[["bn4a_branch2c", 0, 0, {}], ["bn4a_branch1", 0, 0, {}]]]}, {"config": {"trainable": true, "name": "activation_25", "activation": "relu"}, "class_name": "Activation", "name": "activation_25", "inbound_nodes": [[["add_8", 0, 0, {}]]]}, {"config": {"kernel_size": [1, 1], "kernel_regularizer": null, "use_bias": true, "padding": "valid", "bias_constraint": null, "kernel_constraint": null, "dilation_rate": [1, 1], "bias_regularizer": null, "name": "res4b_branch2a", "data_format": "channels_last", "bias_initializer": {"config": {}, "class_name": "Zeros"}, "trainable": true, "filters": 256, "activity_regularizer": null, "strides": [1, 1], "kernel_initializer": {"config": {"mode": "fan_avg", "seed": null, "distribution": "uniform", "scale": 1.0}, "class_name": "VarianceScaling"}, "activation": "linear"}, "class_name": "Conv2D", "name": "res4b_branch2a", "inbound_nodes": [[["activation_25", 0, 0, {}]]]}, {"config": {"gamma_regularizer": null, "beta_regularizer": null, "axis": 3, "epsilon": 0.001, "gamma_initializer": {"config": {}, "class_name": "Ones"}, "beta_constraint": null, "moving_variance_initializer": {"config": {}, "class_name": "Ones"}, "gamma_constraint": null, "momentum": 0.99, "name": "bn4b_branch2a", "scale": true, "moving_mean_initializer": {"config": {}, "class_name": "Zeros"}, "trainable": true, "center": true, "beta_initializer": {"config": {}, "class_name": "Zeros"}}, "class_name": "BatchNormalization", "name": "bn4b_branch2a", "inbound_nodes": [[["res4b_branch2a", 0, 0, {}]]]}, {"config": {"trainable": true, "name": "activation_26", "activation": "relu"}, "class_name": "Activation", "name": "activation_26", "inbound_nodes": [[["bn4b_branch2a", 0, 0, {}]]]}, {"config": {"kernel_size": [3, 3], "kernel_regularizer": null, "use_bias": true, "padding": "same", "bias_constraint": null, "kernel_constraint": null, "dilation_rate": [1, 1], "bias_regularizer": null, "name": "res4b_branch2b", "data_format": "channels_last", "bias_initializer": {"config": {}, "class_name": "Zeros"}, "trainable": true, "filters": 256, "activity_regularizer": null, "strides": [1, 1], "kernel_initializer": {"config": {"mode": "fan_avg", "seed": null, "distribution": "uniform", "scale": 1.0}, "class_name": "VarianceScaling"}, "activation": "linear"}, "class_name": "Conv2D", "name": "res4b_branch2b", "inbound_nodes": [[["activation_26", 0, 0, {}]]]}, {"config": {"gamma_regularizer": null, "beta_regularizer": null, "axis": 3, "epsilon": 0.001, "gamma_initializer": {"config": {}, "class_name": "Ones"}, "beta_constraint": null, "moving_variance_initializer": {"config": {}, "class_name": "Ones"}, "gamma_constraint": null, "momentum": 0.99, "name": "bn4b_branch2b", "scale": true, "moving_mean_initializer": {"config": {}, "class_name": "Zeros"}, "trainable": true, "center": true, "beta_initializer": {"config": {}, "class_name": "Zeros"}}, "class_name": "BatchNormalization", "name": "bn4b_branch2b", "inbound_nodes": [[["res4b_branch2b", 0, 0, {}]]]}, {"config": {"trainable": true, "name": "activation_27", "activation": "relu"}, "class_name": "Activation", "name": "activation_27", "inbound_nodes": [[["bn4b_branch2b", 0, 0, {}]]]}, {"config": {"kernel_size": [1, 1], "kernel_regularizer": null, "use_bias": true, "padding": "valid", "bias_constraint": null, "kernel_constraint": null, "dilation_rate": [1, 1], "bias_regularizer": null, "name": "res4b_branch2c", "data_format": "channels_last", "bias_initializer": {"config": {}, "class_name": "Zeros"}, "trainable": true, "filters": 1024, "activity_regularizer": null, "strides": [1, 1], "kernel_initializer": {"config": {"mode": "fan_avg", "seed": null, "distribution": "uniform", "scale": 1.0}, "class_name": "VarianceScaling"}, "activation": "linear"}, "class_name": "Conv2D", "name": "res4b_branch2c", "inbound_nodes": [[["activation_27", 0, 0, {}]]]}, {"config": {"gamma_regularizer": null, "beta_regularizer": null, "axis": 3, "epsilon": 0.001, "gamma_initializer": {"config": {}, "class_name": "Ones"}, "beta_constraint": null, "moving_variance_initializer": {"config": {}, "class_name": "Ones"}, "gamma_constraint": null, "momentum": 0.99, "name": "bn4b_branch2c", "scale": true, "moving_mean_initializer": {"config": {}, "class_name": "Zeros"}, "trainable": true, "center": true, "beta_initializer": {"config": {}, "class_name": "Zeros"}}, "class_name": "BatchNormalization", "name": "bn4b_branch2c", "inbound_nodes": [[["res4b_branch2c", 0, 0, {}]]]}, {"config": {"trainable": true, "name": "add_9"}, "class_name": "Add", "name": "add_9", "inbound_nodes": [[["bn4b_branch2c", 0, 0, {}], ["activation_25", 0, 0, {}]]]}, {"config": {"trainable": true, "name": "activation_28", "activation": "relu"}, "class_name": "Activation", "name": "activation_28", "inbound_nodes": [[["add_9", 0, 0, {}]]]}, {"config": {"kernel_size": [1, 1], "kernel_regularizer": null, "use_bias": true, "padding": "valid", "bias_constraint": null, "kernel_constraint": null, "dilation_rate": [1, 1], "bias_regularizer": null, "name": "res4c_branch2a", "data_format": "channels_last", "bias_initializer": {"config": {}, "class_name": "Zeros"}, "trainable": true, "filters": 256, "activity_regularizer": null, "strides": [1, 1], "kernel_initializer": {"config": {"mode": "fan_avg", "seed": null, "distribution": "uniform", "scale": 1.0}, "class_name": "VarianceScaling"}, "activation": "linear"}, "class_name": "Conv2D", "name": "res4c_branch2a", "inbound_nodes": [[["activation_28", 0, 0, {}]]]}, {"config": {"gamma_regularizer": null, "beta_regularizer": null, "axis": 3, "epsilon": 0.001, "gamma_initializer": {"config": {}, "class_name": "Ones"}, "beta_constraint": null, "moving_variance_initializer": {"config": {}, "class_name": "Ones"}, "gamma_constraint": null, "momentum": 0.99, "name": "bn4c_branch2a", "scale": true, "moving_mean_initializer": {"config": {}, "class_name": "Zeros"}, "trainable": true, "center": true, "beta_initializer": {"config": {}, "class_name": "Zeros"}}, "class_name": "BatchNormalization", "name": "bn4c_branch2a", "inbound_nodes": [[["res4c_branch2a", 0, 0, {}]]]}, {"config": {"trainable": true, "name": "activation_29", "activation": "relu"}, "class_name": "Activation", "name": "activation_29", "inbound_nodes": [[["bn4c_branch2a", 0, 0, {}]]]}, {"config": {"kernel_size": [3, 3], "kernel_regularizer": null, "use_bias": true, "padding": "same", "bias_constraint": null, "kernel_constraint": null, "dilation_rate": [1, 1], "bias_regularizer": null, "name": "res4c_branch2b", "data_format": "channels_last", "bias_initializer": {"config": {}, "class_name": "Zeros"}, "trainable": true, "filters": 256, "activity_regularizer": null, "strides": [1, 1], "kernel_initializer": {"config": {"mode": "fan_avg", "seed": null, "distribution": "uniform", "scale": 1.0}, "class_name": "VarianceScaling"}, "activation": "linear"}, "class_name": "Conv2D", "name": "res4c_branch2b", "inbound_nodes": [[["activation_29", 0, 0, {}]]]}, {"config": {"gamma_regularizer": null, "beta_regularizer": null, "axis": 3, "epsilon": 0.001, "gamma_initializer": {"config": {}, "class_name": "Ones"}, "beta_constraint": null, "moving_variance_initializer": {"config": {}, "class_name": "Ones"}, "gamma_constraint": null, "momentum": 0.99, "name": "bn4c_branch2b", "scale": true, "moving_mean_initializer": {"config": {}, "class_name": "Zeros"}, "trainable": true, "center": true, "beta_initializer": {"config": {}, "class_name": "Zeros"}}, "class_name": "BatchNormalization", "name": "bn4c_branch2b", "inbound_nodes": [[["res4c_branch2b", 0, 0, {}]]]}, {"config": {"trainable": true, "name": "activation_30", "activation": "relu"}, "class_name": "Activation", "name": "activation_30", "inbound_nodes": [[["bn4c_branch2b", 0, 0, {}]]]}, {"config": {"kernel_size": [1, 1], "kernel_regularizer": null, "use_bias": true, "padding": "valid", "bias_constraint": null, "kernel_constraint": null, "dilation_rate": [1, 1], "bias_regularizer": null, "name": "res4c_branch2c", "data_format": "channels_last", "bias_initializer": {"config": {}, "class_name": "Zeros"}, "trainable": true, "filters": 1024, "activity_regularizer": null, "strides": [1, 1], "kernel_initializer": {"config": {"mode": "fan_avg", "seed": null, "distribution": "uniform", "scale": 1.0}, "class_name": "VarianceScaling"}, "activation": "linear"}, "class_name": "Conv2D", "name": "res4c_branch2c", "inbound_nodes": [[["activation_30", 0, 0, {}]]]}, {"config": {"gamma_regularizer": null, "beta_regularizer": null, "axis": 3, "epsilon": 0.001, "gamma_initializer": {"config": {}, "class_name": "Ones"}, "beta_constraint": null, "moving_variance_initializer": {"config": {}, "class_name": "Ones"}, "gamma_constraint": null, "momentum": 0.99, "name": "bn4c_branch2c", "scale": true, "moving_mean_initializer": {"config": {}, "class_name": "Zeros"}, "trainable": true, "center": true, "beta_initializer": {"config": {}, "class_name": "Zeros"}}, "class_name": "BatchNormalization", "name": "bn4c_branch2c", "inbound_nodes": [[["res4c_branch2c", 0, 0, {}]]]}, {"config": {"trainable": true, "name": "add_10"}, "class_name": "Add", "name": "add_10", "inbound_nodes": [[["bn4c_branch2c", 0, 0, {}], ["activation_28", 0, 0, {}]]]}, {"config": {"trainable": true, "name": "activation_31", "activation": "relu"}, "class_name": "Activation", "name": "activation_31", "inbound_nodes": [[["add_10", 0, 0, {}]]]}, {"config": {"kernel_size": [1, 1], "kernel_regularizer": null, "use_bias": true, "padding": "valid", "bias_constraint": null, "kernel_constraint": null, "dilation_rate": [1, 1], "bias_regularizer": null, "name": "res4d_branch2a", "data_format": "channels_last", "bias_initializer": {"config": {}, "class_name": "Zeros"}, "trainable": true, "filters": 256, "activity_regularizer": null, "strides": [1, 1], "kernel_initializer": {"config": {"mode": "fan_avg", "seed": null, "distribution": "uniform", "scale": 1.0}, "class_name": "VarianceScaling"}, "activation": "linear"}, "class_name": "Conv2D", "name": "res4d_branch2a", "inbound_nodes": [[["activation_31", 0, 0, {}]]]}, {"config": {"gamma_regularizer": null, "beta_regularizer": null, "axis": 3, "epsilon": 0.001, "gamma_initializer": {"config": {}, "class_name": "Ones"}, "beta_constraint": null, "moving_variance_initializer": {"config": {}, "class_name": "Ones"}, "gamma_constraint": null, "momentum": 0.99, "name": "bn4d_branch2a", "scale": true, "moving_mean_initializer": {"config": {}, "class_name": "Zeros"}, "trainable": true, "center": true, "beta_initializer": {"config": {}, "class_name": "Zeros"}}, "class_name": "BatchNormalization", "name": "bn4d_branch2a", "inbound_nodes": [[["res4d_branch2a", 0, 0, {}]]]}, {"config": {"trainable": true, "name": "activation_32", "activation": "relu"}, "class_name": "Activation", "name": "activation_32", "inbound_nodes": [[["bn4d_branch2a", 0, 0, {}]]]}, {"config": {"kernel_size": [3, 3], "kernel_regularizer": null, "use_bias": true, "padding": "same", "bias_constraint": null, "kernel_constraint": null, "dilation_rate": [1, 1], "bias_regularizer": null, "name": "res4d_branch2b", "data_format": "channels_last", "bias_initializer": {"config": {}, "class_name": "Zeros"}, "trainable": true, "filters": 256, "activity_regularizer": null, "strides": [1, 1], "kernel_initializer": {"config": {"mode": "fan_avg", "seed": null, "distribution": "uniform", "scale": 1.0}, "class_name": "VarianceScaling"}, "activation": "linear"}, "class_name": "Conv2D", "name": "res4d_branch2b", "inbound_nodes": [[["activation_32", 0, 0, {}]]]}, {"config": {"gamma_regularizer": null, "beta_regularizer": null, "axis": 3, "epsilon": 0.001, "gamma_initializer": {"config": {}, "class_name": "Ones"}, "beta_constraint": null, "moving_variance_initializer": {"config": {}, "class_name": "Ones"}, "gamma_constraint": null, "momentum": 0.99, "name": "bn4d_branch2b", "scale": true, "moving_mean_initializer": {"config": {}, "class_name": "Zeros"}, "trainable": true, "center": true, "beta_initializer": {"config": {}, "class_name": "Zeros"}}, "class_name": "BatchNormalization", "name": "bn4d_branch2b", "inbound_nodes": [[["res4d_branch2b", 0, 0, {}]]]}, {"config": {"trainable": true, "name": "activation_33", "activation": "relu"}, "class_name": "Activation", "name": "activation_33", "inbound_nodes": [[["bn4d_branch2b", 0, 0, {}]]]}, {"config": {"kernel_size": [1, 1], "kernel_regularizer": null, "use_bias": true, "padding": "valid", "bias_constraint": null, "kernel_constraint": null, "dilation_rate": [1, 1], "bias_regularizer": null, "name": "res4d_branch2c", "data_format": "channels_last", "bias_initializer": {"config": {}, "class_name": "Zeros"}, "trainable": true, "filters": 1024, "activity_regularizer": null, "strides": [1, 1], "kernel_initializer": {"config": {"mode": "fan_avg", "seed": null, "distribution": "uniform", "scale": 1.0}, "class_name": "VarianceScaling"}, "activation": "linear"}, "class_name": "Conv2D", "name": "res4d_branch2c", "inbound_nodes": [[["activation_33", 0, 0, {}]]]}, {"config": {"gamma_regularizer": null, "beta_regularizer": null, "axis": 3, "epsilon": 0.001, "gamma_initializer": {"config": {}, "class_name": "Ones"}, "beta_constraint": null, "moving_variance_initializer": {"config": {}, "class_name": "Ones"}, "gamma_constraint": null, "momentum": 0.99, "name": "bn4d_branch2c", "scale": true, "moving_mean_initializer": {"config": {}, "class_name": "Zeros"}, "trainable": true, "center": true, "beta_initializer": {"config": {}, "class_name": "Zeros"}}, "class_name": "BatchNormalization", "name": "bn4d_branch2c", "inbound_nodes": [[["res4d_branch2c", 0, 0, {}]]]}, {"config": {"trainable": true, "name": "add_11"}, "class_name": "Add", "name": "add_11", "inbound_nodes": [[["bn4d_branch2c", 0, 0, {}], ["activation_31", 0, 0, {}]]]}, {"config": {"trainable": true, "name": "activation_34", "activation": "relu"}, "class_name": "Activation", "name": "activation_34", "inbound_nodes": [[["add_11", 0, 0, {}]]]}, {"config": {"kernel_size": [1, 1], "kernel_regularizer": null, "use_bias": true, "padding": "valid", "bias_constraint": null, "kernel_constraint": null, "dilation_rate": [1, 1], "bias_regularizer": null, "name": "res4e_branch2a", "data_format": "channels_last", "bias_initializer": {"config": {}, "class_name": "Zeros"}, "trainable": true, "filters": 256, "activity_regularizer": null, "strides": [1, 1], "kernel_initializer": {"config": {"mode": "fan_avg", "seed": null, "distribution": "uniform", "scale": 1.0}, "class_name": "VarianceScaling"}, "activation": "linear"}, "class_name": "Conv2D", "name": "res4e_branch2a", "inbound_nodes": [[["activation_34", 0, 0, {}]]]}, {"config": {"gamma_regularizer": null, "beta_regularizer": null, "axis": 3, "epsilon": 0.001, "gamma_initializer": {"config": {}, "class_name": "Ones"}, "beta_constraint": null, "moving_variance_initializer": {"config": {}, "class_name": "Ones"}, "gamma_constraint": null, "momentum": 0.99, "name": "bn4e_branch2a", "scale": true, "moving_mean_initializer": {"config": {}, "class_name": "Zeros"}, "trainable": true, "center": true, "beta_initializer": {"config": {}, "class_name": "Zeros"}}, "class_name": "BatchNormalization", "name": "bn4e_branch2a", "inbound_nodes": [[["res4e_branch2a", 0, 0, {}]]]}, {"config": {"trainable": true, "name": "activation_35", "activation": "relu"}, "class_name": "Activation", "name": "activation_35", "inbound_nodes": [[["bn4e_branch2a", 0, 0, {}]]]}, {"config": {"kernel_size": [3, 3], "kernel_regularizer": null, "use_bias": true, "padding": "same", "bias_constraint": null, "kernel_constraint": null, "dilation_rate": [1, 1], "bias_regularizer": null, "name": "res4e_branch2b", "data_format": "channels_last", "bias_initializer": {"config": {}, "class_name": "Zeros"}, "trainable": true, "filters": 256, "activity_regularizer": null, "strides": [1, 1], "kernel_initializer": {"config": {"mode": "fan_avg", "seed": null, "distribution": "uniform", "scale": 1.0}, "class_name": "VarianceScaling"}, "activation": "linear"}, "class_name": "Conv2D", "name": "res4e_branch2b", "inbound_nodes": [[["activation_35", 0, 0, {}]]]}, {"config": {"gamma_regularizer": null, "beta_regularizer": null, "axis": 3, "epsilon": 0.001, "gamma_initializer": {"config": {}, "class_name": "Ones"}, "beta_constraint": null, "moving_variance_initializer": {"config": {}, "class_name": "Ones"}, "gamma_constraint": null, "momentum": 0.99, "name": "bn4e_branch2b", "scale": true, "moving_mean_initializer": {"config": {}, "class_name": "Zeros"}, "trainable": true, "center": true, "beta_initializer": {"config": {}, "class_name": "Zeros"}}, "class_name": "BatchNormalization", "name": "bn4e_branch2b", "inbound_nodes": [[["res4e_branch2b", 0, 0, {}]]]}, {"config": {"trainable": true, "name": "activation_36", "activation": "relu"}, "class_name": "Activation", "name": "activation_36", "inbound_nodes": [[["bn4e_branch2b", 0, 0, {}]]]}, {"config": {"kernel_size": [1, 1], "kernel_regularizer": null, "use_bias": true, "padding": "valid", "bias_constraint": null, "kernel_constraint": null, "dilation_rate": [1, 1], "bias_regularizer": null, "name": "res4e_branch2c", "data_format": "channels_last", "bias_initializer": {"config": {}, "class_name": "Zeros"}, "trainable": true, "filters": 1024, "activity_regularizer": null, "strides": [1, 1], "kernel_initializer": {"config": {"mode": "fan_avg", "seed": null, "distribution": "uniform", "scale": 1.0}, "class_name": "VarianceScaling"}, "activation": "linear"}, "class_name": "Conv2D", "name": "res4e_branch2c", "inbound_nodes": [[["activation_36", 0, 0, {}]]]}, {"config": {"gamma_regularizer": null, "beta_regularizer": null, "axis": 3, "epsilon": 0.001, "gamma_initializer": {"config": {}, "class_name": "Ones"}, "beta_constraint": null, "moving_variance_initializer": {"config": {}, "class_name": "Ones"}, "gamma_constraint": null, "momentum": 0.99, "name": "bn4e_branch2c", "scale": true, "moving_mean_initializer": {"config": {}, "class_name": "Zeros"}, "trainable": true, "center": true, "beta_initializer": {"config": {}, "class_name": "Zeros"}}, "class_name": "BatchNormalization", "name": "bn4e_branch2c", "inbound_nodes": [[["res4e_branch2c", 0, 0, {}]]]}, {"config": {"trainable": true, "name": "add_12"}, "class_name": "Add", "name": "add_12", "inbound_nodes": [[["bn4e_branch2c", 0, 0, {}], ["activation_34", 0, 0, {}]]]}, {"config": {"trainable": true, "name": "activation_37", "activation": "relu"}, "class_name": "Activation", "name": "activation_37", "inbound_nodes": [[["add_12", 0, 0, {}]]]}, {"config": {"kernel_size": [1, 1], "kernel_regularizer": null, "use_bias": true, "padding": "valid", "bias_constraint": null, "kernel_constraint": null, "dilation_rate": [1, 1], "bias_regularizer": null, "name": "res4f_branch2a", "data_format": "channels_last", "bias_initializer": {"config": {}, "class_name": "Zeros"}, "trainable": true, "filters": 256, "activity_regularizer": null, "strides": [1, 1], "kernel_initializer": {"config": {"mode": "fan_avg", "seed": null, "distribution": "uniform", "scale": 1.0}, "class_name": "VarianceScaling"}, "activation": "linear"}, "class_name": "Conv2D", "name": "res4f_branch2a", "inbound_nodes": [[["activation_37", 0, 0, {}]]]}, {"config": {"gamma_regularizer": null, "beta_regularizer": null, "axis": 3, "epsilon": 0.001, "gamma_initializer": {"config": {}, "class_name": "Ones"}, "beta_constraint": null, "moving_variance_initializer": {"config": {}, "class_name": "Ones"}, "gamma_constraint": null, "momentum": 0.99, "name": "bn4f_branch2a", "scale": true, "moving_mean_initializer": {"config": {}, "class_name": "Zeros"}, "trainable": true, "center": true, "beta_initializer": {"config": {}, "class_name": "Zeros"}}, "class_name": "BatchNormalization", "name": "bn4f_branch2a", "inbound_nodes": [[["res4f_branch2a", 0, 0, {}]]]}, {"config": {"trainable": true, "name": "activation_38", "activation": "relu"}, "class_name": "Activation", "name": "activation_38", "inbound_nodes": [[["bn4f_branch2a", 0, 0, {}]]]}, {"config": {"kernel_size": [3, 3], "kernel_regularizer": null, "use_bias": true, "padding": "same", "bias_constraint": null, "kernel_constraint": null, "dilation_rate": [1, 1], "bias_regularizer": null, "name": "res4f_branch2b", "data_format": "channels_last", "bias_initializer": {"config": {}, "class_name": "Zeros"}, "trainable": true, "filters": 256, "activity_regularizer": null, "strides": [1, 1], "kernel_initializer": {"config": {"mode": "fan_avg", "seed": null, "distribution": "uniform", "scale": 1.0}, "class_name": "VarianceScaling"}, "activation": "linear"}, "class_name": "Conv2D", "name": "res4f_branch2b", "inbound_nodes": [[["activation_38", 0, 0, {}]]]}, {"config": {"gamma_regularizer": null, "beta_regularizer": null, "axis": 3, "epsilon": 0.001, "gamma_initializer": {"config": {}, "class_name": "Ones"}, "beta_constraint": null, "moving_variance_initializer": {"config": {}, "class_name": "Ones"}, "gamma_constraint": null, "momentum": 0.99, "name": "bn4f_branch2b", "scale": true, "moving_mean_initializer": {"config": {}, "class_name": "Zeros"}, "trainable": true, "center": true, "beta_initializer": {"config": {}, "class_name": "Zeros"}}, "class_name": "BatchNormalization", "name": "bn4f_branch2b", "inbound_nodes": [[["res4f_branch2b", 0, 0, {}]]]}, {"config": {"trainable": true, "name": "activation_39", "activation": "relu"}, "class_name": "Activation", "name": "activation_39", "inbound_nodes": [[["bn4f_branch2b", 0, 0, {}]]]}, {"config": {"kernel_size": [1, 1], "kernel_regularizer": null, "use_bias": true, "padding": "valid", "bias_constraint": null, "kernel_constraint": null, "dilation_rate": [1, 1], "bias_regularizer": null, "name": "res4f_branch2c", "data_format": "channels_last", "bias_initializer": {"config": {}, "class_name": "Zeros"}, "trainable": true, "filters": 1024, "activity_regularizer": null, "strides": [1, 1], "kernel_initializer": {"config": {"mode": "fan_avg", "seed": null, "distribution": "uniform", "scale": 1.0}, "class_name": "VarianceScaling"}, "activation": "linear"}, "class_name": "Conv2D", "name": "res4f_branch2c", "inbound_nodes": [[["activation_39", 0, 0, {}]]]}, {"config": {"gamma_regularizer": null, "beta_regularizer": null, "axis": 3, "epsilon": 0.001, "gamma_initializer": {"config": {}, "class_name": "Ones"}, "beta_constraint": null, "moving_variance_initializer": {"config": {}, "class_name": "Ones"}, "gamma_constraint": null, "momentum": 0.99, "name": "bn4f_branch2c", "scale": true, "moving_mean_initializer": {"config": {}, "class_name": "Zeros"}, "trainable": true, "center": true, "beta_initializer": {"config": {}, "class_name": "Zeros"}}, "class_name": "BatchNormalization", "name": "bn4f_branch2c", "inbound_nodes": [[["res4f_branch2c", 0, 0, {}]]]}, {"config": {"trainable": true, "name": "add_13"}, "class_name": "Add", "name": "add_13", "inbound_nodes": [[["bn4f_branch2c", 0, 0, {}], ["activation_37", 0, 0, {}]]]}, {"config": {"trainable": true, "name": "activation_40", "activation": "relu"}, "class_name": "Activation", "name": "activation_40", "inbound_nodes": [[["add_13", 0, 0, {}]]]}, {"config": {"kernel_size": [1, 1], "kernel_regularizer": null, "use_bias": true, "padding": "valid", "bias_constraint": null, "kernel_constraint": null, "dilation_rate": [1, 1], "bias_regularizer": null, "name": "res5a_branch2a", "data_format": "channels_last", "bias_initializer": {"config": {}, "class_name": "Zeros"}, "trainable": true, "filters": 512, "activity_regularizer": null, "strides": [2, 2], "kernel_initializer": {"config": {"mode": "fan_avg", "seed": null, "distribution": "uniform", "scale": 1.0}, "class_name": "VarianceScaling"}, "activation": "linear"}, "class_name": "Conv2D", "name": "res5a_branch2a", "inbound_nodes": [[["activation_40", 0, 0, {}]]]}, {"config": {"gamma_regularizer": null, "beta_regularizer": null, "axis": 3, "epsilon": 0.001, "gamma_initializer": {"config": {}, "class_name": "Ones"}, "beta_constraint": null, "moving_variance_initializer": {"config": {}, "class_name": "Ones"}, "gamma_constraint": null, "momentum": 0.99, "name": "bn5a_branch2a", "scale": true, "moving_mean_initializer": {"config": {}, "class_name": "Zeros"}, "trainable": true, "center": true, "beta_initializer": {"config": {}, "class_name": "Zeros"}}, "class_name": "BatchNormalization", "name": "bn5a_branch2a", "inbound_nodes": [[["res5a_branch2a", 0, 0, {}]]]}, {"config": {"trainable": true, "name": "activation_41", "activation": "relu"}, "class_name": "Activation", "name": "activation_41", "inbound_nodes": [[["bn5a_branch2a", 0, 0, {}]]]}, {"config": {"kernel_size": [3, 3], "kernel_regularizer": null, "use_bias": true, "padding": "same", "bias_constraint": null, "kernel_constraint": null, "dilation_rate": [1, 1], "bias_regularizer": null, "name": "res5a_branch2b", "data_format": "channels_last", "bias_initializer": {"config": {}, "class_name": "Zeros"}, "trainable": true, "filters": 512, "activity_regularizer": null, "strides": [1, 1], "kernel_initializer": {"config": {"mode": "fan_avg", "seed": null, "distribution": "uniform", "scale": 1.0}, "class_name": "VarianceScaling"}, "activation": "linear"}, "class_name": "Conv2D", "name": "res5a_branch2b", "inbound_nodes": [[["activation_41", 0, 0, {}]]]}, {"config": {"gamma_regularizer": null, "beta_regularizer": null, "axis": 3, "epsilon": 0.001, "gamma_initializer": {"config": {}, "class_name": "Ones"}, "beta_constraint": null, "moving_variance_initializer": {"config": {}, "class_name": "Ones"}, "gamma_constraint": null, "momentum": 0.99, "name": "bn5a_branch2b", "scale": true, "moving_mean_initializer": {"config": {}, "class_name": "Zeros"}, "trainable": true, "center": true, "beta_initializer": {"config": {}, "class_name": "Zeros"}}, "class_name": "BatchNormalization", "name": "bn5a_branch2b", "inbound_nodes": [[["res5a_branch2b", 0, 0, {}]]]}, {"config": {"trainable": true, "name": "activation_42", "activation": "relu"}, "class_name": "Activation", "name": "activation_42", "inbound_nodes": [[["bn5a_branch2b", 0, 0, {}]]]}, {"config": {"kernel_size": [1, 1], "kernel_regularizer": null, "use_bias": true, "padding": "valid", "bias_constraint": null, "kernel_constraint": null, "dilation_rate": [1, 1], "bias_regularizer": null, "name": "res5a_branch2c", "data_format": "channels_last", "bias_initializer": {"config": {}, "class_name": "Zeros"}, "trainable": true, "filters": 2048, "activity_regularizer": null, "strides": [1, 1], "kernel_initializer": {"config": {"mode": "fan_avg", "seed": null, "distribution": "uniform", "scale": 1.0}, "class_name": "VarianceScaling"}, "activation": "linear"}, "class_name": "Conv2D", "name": "res5a_branch2c", "inbound_nodes": [[["activation_42", 0, 0, {}]]]}, {"config": {"kernel_size": [1, 1], "kernel_regularizer": null, "use_bias": true, "padding": "valid", "bias_constraint": null, "kernel_constraint": null, "dilation_rate": [1, 1], "bias_regularizer": null, "name": "res5a_branch1", "data_format": "channels_last", "bias_initializer": {"config": {}, "class_name": "Zeros"}, "trainable": true, "filters": 2048, "activity_regularizer": null, "strides": [2, 2], "kernel_initializer": {"config": {"mode": "fan_avg", "seed": null, "distribution": "uniform", "scale": 1.0}, "class_name": "VarianceScaling"}, "activation": "linear"}, "class_name": "Conv2D", "name": "res5a_branch1", "inbound_nodes": [[["activation_40", 0, 0, {}]]]}, {"config": {"gamma_regularizer": null, "beta_regularizer": null, "axis": 3, "epsilon": 0.001, "gamma_initializer": {"config": {}, "class_name": "Ones"}, "beta_constraint": null, "moving_variance_initializer": {"config": {}, "class_name": "Ones"}, "gamma_constraint": null, "momentum": 0.99, "name": "bn5a_branch2c", "scale": true, "moving_mean_initializer": {"config": {}, "class_name": "Zeros"}, "trainable": true, "center": true, "beta_initializer": {"config": {}, "class_name": "Zeros"}}, "class_name": "BatchNormalization", "name": "bn5a_branch2c", "inbound_nodes": [[["res5a_branch2c", 0, 0, {}]]]}, {"config": {"gamma_regularizer": null, "beta_regularizer": null, "axis": 3, "epsilon": 0.001, "gamma_initializer": {"config": {}, "class_name": "Ones"}, "beta_constraint": null, "moving_variance_initializer": {"config": {}, "class_name": "Ones"}, "gamma_constraint": null, "momentum": 0.99, "name": "bn5a_branch1", "scale": true, "moving_mean_initializer": {"config": {}, "class_name": "Zeros"}, "trainable": true, "center": true, "beta_initializer": {"config": {}, "class_name": "Zeros"}}, "class_name": "BatchNormalization", "name": "bn5a_branch1", "inbound_nodes": [[["res5a_branch1", 0, 0, {}]]]}, {"config": {"trainable": true, "name": "add_14"}, "class_name": "Add", "name": "add_14", "inbound_nodes": [[["bn5a_branch2c", 0, 0, {}], ["bn5a_branch1", 0, 0, {}]]]}, {"config": {"trainable": true, "name": "activation_43", "activation": "relu"}, "class_name": "Activation", "name": "activation_43", "inbound_nodes": [[["add_14", 0, 0, {}]]]}, {"config": {"kernel_size": [1, 1], "kernel_regularizer": null, "use_bias": true, "padding": "valid", "bias_constraint": null, "kernel_constraint": null, "dilation_rate": [1, 1], "bias_regularizer": null, "name": "res5b_branch2a", "data_format": "channels_last", "bias_initializer": {"config": {}, "class_name": "Zeros"}, "trainable": true, "filters": 512, "activity_regularizer": null, "strides": [1, 1], "kernel_initializer": {"config": {"mode": "fan_avg", "seed": null, "distribution": "uniform", "scale": 1.0}, "class_name": "VarianceScaling"}, "activation": "linear"}, "class_name": "Conv2D", "name": "res5b_branch2a", "inbound_nodes": [[["activation_43", 0, 0, {}]]]}, {"config": {"gamma_regularizer": null, "beta_regularizer": null, "axis": 3, "epsilon": 0.001, "gamma_initializer": {"config": {}, "class_name": "Ones"}, "beta_constraint": null, "moving_variance_initializer": {"config": {}, "class_name": "Ones"}, "gamma_constraint": null, "momentum": 0.99, "name": "bn5b_branch2a", "scale": true, "moving_mean_initializer": {"config": {}, "class_name": "Zeros"}, "trainable": true, "center": true, "beta_initializer": {"config": {}, "class_name": "Zeros"}}, "class_name": "BatchNormalization", "name": "bn5b_branch2a", "inbound_nodes": [[["res5b_branch2a", 0, 0, {}]]]}, {"config": {"trainable": true, "name": "activation_44", "activation": "relu"}, "class_name": "Activation", "name": "activation_44", "inbound_nodes": [[["bn5b_branch2a", 0, 0, {}]]]}, {"config": {"kernel_size": [3, 3], "kernel_regularizer": null, "use_bias": true, "padding": "same", "bias_constraint": null, "kernel_constraint": null, "dilation_rate": [1, 1], "bias_regularizer": null, "name": "res5b_branch2b", "data_format": "channels_last", "bias_initializer": {"config": {}, "class_name": "Zeros"}, "trainable": true, "filters": 512, "activity_regularizer": null, "strides": [1, 1], "kernel_initializer": {"config": {"mode": "fan_avg", "seed": null, "distribution": "uniform", "scale": 1.0}, "class_name": "VarianceScaling"}, "activation": "linear"}, "class_name": "Conv2D", "name": "res5b_branch2b", "inbound_nodes": [[["activation_44", 0, 0, {}]]]}, {"config": {"gamma_regularizer": null, "beta_regularizer": null, "axis": 3, "epsilon": 0.001, "gamma_initializer": {"config": {}, "class_name": "Ones"}, "beta_constraint": null, "moving_variance_initializer": {"config": {}, "class_name": "Ones"}, "gamma_constraint": null, "momentum": 0.99, "name": "bn5b_branch2b", "scale": true, "moving_mean_initializer": {"config": {}, "class_name": "Zeros"}, "trainable": true, "center": true, "beta_initializer": {"config": {}, "class_name": "Zeros"}}, "class_name": "BatchNormalization", "name": "bn5b_branch2b", "inbound_nodes": [[["res5b_branch2b", 0, 0, {}]]]}, {"config": {"trainable": true, "name": "activation_45", "activation": "relu"}, "class_name": "Activation", "name": "activation_45", "inbound_nodes": [[["bn5b_branch2b", 0, 0, {}]]]}, {"config": {"kernel_size": [1, 1], "kernel_regularizer": null, "use_bias": true, "padding": "valid", "bias_constraint": null, "kernel_constraint": null, "dilation_rate": [1, 1], "bias_regularizer": null, "name": "res5b_branch2c", "data_format": "channels_last", "bias_initializer": {"config": {}, "class_name": "Zeros"}, "trainable": true, "filters": 2048, "activity_regularizer": null, "strides": [1, 1], "kernel_initializer": {"config": {"mode": "fan_avg", "seed": null, "distribution": "uniform", "scale": 1.0}, "class_name": "VarianceScaling"}, "activation": "linear"}, "class_name": "Conv2D", "name": "res5b_branch2c", "inbound_nodes": [[["activation_45", 0, 0, {}]]]}, {"config": {"gamma_regularizer": null, "beta_regularizer": null, "axis": 3, "epsilon": 0.001, "gamma_initializer": {"config": {}, "class_name": "Ones"}, "beta_constraint": null, "moving_variance_initializer": {"config": {}, "class_name": "Ones"}, "gamma_constraint": null, "momentum": 0.99, "name": "bn5b_branch2c", "scale": true, "moving_mean_initializer": {"config": {}, "class_name": "Zeros"}, "trainable": true, "center": true, "beta_initializer": {"config": {}, "class_name": "Zeros"}}, "class_name": "BatchNormalization", "name": "bn5b_branch2c", "inbound_nodes": [[["res5b_branch2c", 0, 0, {}]]]}, {"config": {"trainable": true, "name": "add_15"}, "class_name": "Add", "name": "add_15", "inbound_nodes": [[["bn5b_branch2c", 0, 0, {}], ["activation_43", 0, 0, {}]]]}, {"config": {"trainable": true, "name": "activation_46", "activation": "relu"}, "class_name": "Activation", "name": "activation_46", "inbound_nodes": [[["add_15", 0, 0, {}]]]}, {"config": {"kernel_size": [1, 1], "kernel_regularizer": null, "use_bias": true, "padding": "valid", "bias_constraint": null, "kernel_constraint": null, "dilation_rate": [1, 1], "bias_regularizer": null, "name": "res5c_branch2a", "data_format": "channels_last", "bias_initializer": {"config": {}, "class_name": "Zeros"}, "trainable": true, "filters": 512, "activity_regularizer": null, "strides": [1, 1], "kernel_initializer": {"config": {"mode": "fan_avg", "seed": null, "distribution": "uniform", "scale": 1.0}, "class_name": "VarianceScaling"}, "activation": "linear"}, "class_name": "Conv2D", "name": "res5c_branch2a", "inbound_nodes": [[["activation_46", 0, 0, {}]]]}, {"config": {"gamma_regularizer": null, "beta_regularizer": null, "axis": 3, "epsilon": 0.001, "gamma_initializer": {"config": {}, "class_name": "Ones"}, "beta_constraint": null, "moving_variance_initializer": {"config": {}, "class_name": "Ones"}, "gamma_constraint": null, "momentum": 0.99, "name": "bn5c_branch2a", "scale": true, "moving_mean_initializer": {"config": {}, "class_name": "Zeros"}, "trainable": true, "center": true, "beta_initializer": {"config": {}, "class_name": "Zeros"}}, "class_name": "BatchNormalization", "name": "bn5c_branch2a", "inbound_nodes": [[["res5c_branch2a", 0, 0, {}]]]}, {"config": {"trainable": true, "name": "activation_47", "activation": "relu"}, "class_name": "Activation", "name": "activation_47", "inbound_nodes": [[["bn5c_branch2a", 0, 0, {}]]]}, {"config": {"kernel_size": [3, 3], "kernel_regularizer": null, "use_bias": true, "padding": "same", "bias_constraint": null, "kernel_constraint": null, "dilation_rate": [1, 1], "bias_regularizer": null, "name": "res5c_branch2b", "data_format": "channels_last", "bias_initializer": {"config": {}, "class_name": "Zeros"}, "trainable": true, "filters": 512, "activity_regularizer": null, "strides": [1, 1], "kernel_initializer": {"config": {"mode": "fan_avg", "seed": null, "distribution": "uniform", "scale": 1.0}, "class_name": "VarianceScaling"}, "activation": "linear"}, "class_name": "Conv2D", "name": "res5c_branch2b", "inbound_nodes": [[["activation_47", 0, 0, {}]]]}, {"config": {"gamma_regularizer": null, "beta_regularizer": null, "axis": 3, "epsilon": 0.001, "gamma_initializer": {"config": {}, "class_name": "Ones"}, "beta_constraint": null, "moving_variance_initializer": {"config": {}, "class_name": "Ones"}, "gamma_constraint": null, "momentum": 0.99, "name": "bn5c_branch2b", "scale": true, "moving_mean_initializer": {"config": {}, "class_name": "Zeros"}, "trainable": true, "center": true, "beta_initializer": {"config": {}, "class_name": "Zeros"}}, "class_name": "BatchNormalization", "name": "bn5c_branch2b", "inbound_nodes": [[["res5c_branch2b", 0, 0, {}]]]}, {"config": {"trainable": true, "name": "activation_48", "activation": "relu"}, "class_name": "Activation", "name": "activation_48", "inbound_nodes": [[["bn5c_branch2b", 0, 0, {}]]]}, {"config": {"kernel_size": [1, 1], "kernel_regularizer": null, "use_bias": true, "padding": "valid", "bias_constraint": null, "kernel_constraint": null, "dilation_rate": [1, 1], "bias_regularizer": null, "name": "res5c_branch2c", "data_format": "channels_last", "bias_initializer": {"config": {}, "class_name": "Zeros"}, "trainable": true, "filters": 2048, "activity_regularizer": null, "strides": [1, 1], "kernel_initializer": {"config": {"mode": "fan_avg", "seed": null, "distribution": "uniform", "scale": 1.0}, "class_name": "VarianceScaling"}, "activation": "linear"}, "class_name": "Conv2D", "name": "res5c_branch2c", "inbound_nodes": [[["activation_48", 0, 0, {}]]]}, {"config": {"gamma_regularizer": null, "beta_regularizer": null, "axis": 3, "epsilon": 0.001, "gamma_initializer": {"config": {}, "class_name": "Ones"}, "beta_constraint": null, "moving_variance_initializer": {"config": {}, "class_name": "Ones"}, "gamma_constraint": null, "momentum": 0.99, "name": "bn5c_branch2c", "scale": true, "moving_mean_initializer": {"config": {}, "class_name": "Zeros"}, "trainable": true, "center": true, "beta_initializer": {"config": {}, "class_name": "Zeros"}}, "class_name": "BatchNormalization", "name": "bn5c_branch2c", "inbound_nodes": [[["res5c_branch2c", 0, 0, {}]]]}, {"config": {"trainable": true, "name": "add_16"}, "class_name": "Add", "name": "add_16", "inbound_nodes": [[["bn5c_branch2c", 0, 0, {}], ["activation_46", 0, 0, {}]]]}, {"config": {"trainable": true, "name": "activation_49", "activation": "relu"}, "class_name": "Activation", "name": "activation_49", "inbound_nodes": [[["add_16", 0, 0, {}]]]}, {"config": {"data_format": "channels_last", "padding": "valid", "trainable": true, "pool_size": [7, 7], "strides": [7, 7], "name": "avg_pool"}, "class_name": "AveragePooling2D", "name": "avg_pool", "inbound_nodes": [[["activation_49", 0, 0, {}]]]}, {"config": {"trainable": true, "data_format": "channels_last", "name": "global_max_pooling2d_1"}, "class_name": "GlobalMaxPooling2D", "name": "global_max_pooling2d_1", "inbound_nodes": [[["avg_pool", 0, 0, {}]]]}, {"config": {"kernel_regularizer": null, "use_bias": true, "bias_constraint": null, "units": 512, "kernel_constraint": null, "bias_regularizer": null, "name": "dense_1", "trainable": true, "bias_initializer": {"config": {}, "class_name": "Zeros"}, "activity_regularizer": null, "kernel_initializer": {"config": {"mode": "fan_avg", "seed": null, "distribution": "uniform", "scale": 1.0}, "class_name": "VarianceScaling"}, "activation": "relu"}, "class_name": "Dense", "name": "dense_1", "inbound_nodes": [[["global_max_pooling2d_1", 0, 0, {}]]]}, {"config": {"gamma_regularizer": null, "beta_regularizer": null, "axis": -1, "epsilon": 0.001, "gamma_initializer": {"config": {}, "class_name": "Ones"}, "beta_constraint": null, "moving_variance_initializer": {"config": {}, "class_name": "Ones"}, "gamma_constraint": null, "momentum": 0.99, "name": "batch_normalization_1", "scale": true, "moving_mean_initializer": {"config": {}, "class_name": "Zeros"}, "trainable": true, "center": true, "beta_initializer": {"config": {}, "class_name": "Zeros"}}, "class_name": "BatchNormalization", "name": "batch_normalization_1", "inbound_nodes": [[["dense_1", 0, 0, {}]]]}, {"config": {"kernel_regularizer": null, "use_bias": true, "bias_constraint": null, "units": 128, "kernel_constraint": null, "bias_regularizer": null, "name": "dense_2", "trainable": true, "bias_initializer": {"config": {}, "class_name": "Zeros"}, "activity_regularizer": null, "kernel_initializer": {"config": {"mode": "fan_avg", "seed": null, "distribution": "uniform", "scale": 1.0}, "class_name": "VarianceScaling"}, "activation": "relu"}, "class_name": "Dense", "name": "dense_2", "inbound_nodes": [[["batch_normalization_1", 0, 0, {}]]]}, {"config": {"gamma_regularizer": null, "beta_regularizer": null, "axis": -1, "epsilon": 0.001, "gamma_initializer": {"config": {}, "class_name": "Ones"}, "beta_constraint": null, "moving_variance_initializer": {"config": {}, "class_name": "Ones"}, "gamma_constraint": null, "momentum": 0.99, "name": "batch_normalization_2", "scale": true, "moving_mean_initializer": {"config": {}, "class_name": "Zeros"}, "trainable": true, "center": true, "beta_initializer": {"config": {}, "class_name": "Zeros"}}, "class_name": "BatchNormalization", "name": "batch_normalization_2", "inbound_nodes": [[["dense_2", 0, 0, {}]]]}, {"config": {"kernel_regularizer": null, "use_bias": true, "bias_constraint": null, "units": 2, "kernel_constraint": null, "bias_regularizer": null, "name": "dense_3", "trainable": true, "bias_initializer": {"config": {}, "class_name": "Zeros"}, "activity_regularizer": null, "kernel_initializer": {"config": {"mode": "fan_avg", "seed": null, "distribution": "uniform", "scale": 1.0}, "class_name": "VarianceScaling"}, "activation": "softmax"}, "class_name": "Dense", "name": "dense_3", "inbound_nodes": [[["batch_normalization_2", 0, 0, {}]]]}]}, "class_name": "Model"}, "keras_version": "2.1.1", "training_config": {"metrics": ["accuracy"], "optimizer_config": {"config": {"decay": 9.999999747378752e-06, "beta_1": 0.8999999761581421, "lr": 9.999999747378752e-05, "beta_2": 0.9990000128746033, "epsilon": 1e-08}, "class_name": "Adam"}, "loss": "binary_crossentropy", "sample_weight_mode": null, "loss_weights": null}}}